models/pre_train/cnn+lstm.pth (torch, 666180 bytes, 46 tensors)

rnn_layer.rnn_layer.weight_ih_l0 f4 [256, 46]
-0.067918405 0.0024597973 0.12344137 0.25633746 0.089056335 0.03239328 0.19340923 0.07439363
0.054388102 -0.14397074 0.14367 0.40921998 0.300951 0.20127532 0.25902236 -0.12577076
-0.30829412 -0.11426397 0.046584222 -0.06002225 0.33667994 -0.14304112 0.19217746 -0.044975694
0.054007675 0.044049084 0.22346957 0.020146247 0.098913714 0.34210396 0.3210352 0.20247911
0.2647078 0.3270011 0.07869456 0.09484313 0.09143014 -0.08833163 -0.1258735 -0.00539538
-0.115054056 0.12390215 -0.005365007 0.0073325774 0.16352117 -0.07385809 0.08172111 -0.083603665
0.13377614 0.100351214 -0.021934552 0.048276223 0.22674674 -0.057263568 0.20408373 0.0027871074
0.06940514 0.31750783 0.14653006 0.20809011 0.19183788 0.3304958 0.03695222 0.2960957
0.39546907 0.16992392 0.4369051 0.24158387 0.25624686 0.028297815 0.13141087 0.12307676
0.16168663 0.24513103 0.2502253 0.16743669 0.3707532 -0.108234264 0.09989386 0.3496815
0.13667683 0.004690364 0.14711297 -0.030708916 -0.07971176 -0.044593193 0.10746938 0.003090326
-0.04870611 0.24326657 0.30111873 0.11137808 -0.09046953 -0.06695356 0.29097244 0.3699286
-0.063596666 0.11583799 0.1611796 -0.10353041 0.17567872 0.12940538 -0.13640434 0.13643825
-0.25157022 -0.026753094 0.32421106 0.27136767 -0.15157217 0.2949984 0.53900015 0.38007307
0.6255229 0.27193782 0.4403819 0.10808394 0.2489432 -0.19240189 -0.0039968924 -0.10207903
0.0034125892 0.2771586 0.19925652 0.062768675 -0.016178062 0.1931642 0.23498535 0.41249204
0.15685701 0.06913062 -0.03011752 0.1057037 0.07688503 0.07465454 0.2333812 0.04141377
0.1205798 0.07324413 0.0038595311 -0.07424037 0.28601438 0.035408888 0.18853958 0.07024788
0.29986575 0.30490854 -0.08318427 -0.07348903 0.19579224 0.15720725 0.22029962 0.3122821
0.25677952 -0.061455045 -0.09666443 -0.097876616 -0.12209542 -0.15445688 -0.058993835 0.03824964
-0.07665475 -0.27251118 0.11727489 0.11166318 0.15985484 0.16683728 0.33444986 0.24817124
0.2331411 0.17868243 0.19642659 0.35482997 0.12371991 -0.14977019 -0.034064747 0.11635395
0.15951507 0.18800576 -0.10144832 0.18585 0.24925308 0.34761837 0.34406984 0.27378467
0.0801682 -0.06517438 0.06894641 -0.03373873 0.3534544 0.22107667 0.091187224 0.38576478
0.10313476 0.2135049 0.10584325 0.075843036 0.2182116 0.17390652 0.27132693 0.19202457
0.010983964 -0.19223006 -0.3693406 -0.15870467 -0.06289857 -0.011683775 0.08324665 0.23624806
0.35832605 0.31114417 0.23127471 0.20778844 0.070491426 0.03309154 0.10892806 0.34206954
0.06920824 0.51221323 0.28406152 -0.20890829 0.007601403 -0.014935448 0.11444911 0.20489904
0.028649762 0.018607754 0.21149026 0.08000445 -0.009711512 0.01157473 0.08555505 0.073491454
-0.0030812596 -0.028181028 0.29183924 0.21706064 0.20040002 0.18256076 0.29132664 0.11711379
0.11503518 0.3381777 0.23680525 0.1905739 0.15092479 0.14700678 -0.036468722 0.12385212
0.39480913 0.42029697 0.21414177 0.20310584 0.01757598 0.0394547 0.32965207 0.2247577
00000000: ce18 8bbd 8d34 213b d4ce fc3d aa3e 833e
00000010: 2b63 b63d d1ae 043d 120d 463e b05b 983d
00000020: 0fc6 5e3d 116d 13be 3a1e 133e 4885 d13e
00000030: 4016 9a3e 1e1b 4e3e 949e 843e 0dca 00be
00000040: bad8 9dbe 3a03 eabd 19cf 3e3d e4d9 75bd
00000050: 5061 ac3e 5f79 12be 2bca 443e 6f38 38bd
00000060: 2737 5d3d d06c 343d 35d5 643e be09 a53c
00000070: 4693 ca3d 4028 af3e ba5e a43e af56 4f3e
00000080: c887 873e b06c a73e 9d2a a13d 1d3d c23d
00000090: ba3f bb3d 37e7 b4bd fce4 00be bacb b0bb
000000a0: 76a1 ebbd 69c0 fd3d f1cc afbb 1e46 f03b
000000b0: 1872 273e e942 97bd 665d a73d 6638 abbd
000000c0: 9dfc 083e f084 cd3d 17b0 b3bc 4abd 453d
000000d0: 4c30 683e 348d 6abd 53fb 503e e7a7 363b
000000e0: 4824 8e3d 6390 a23e fa0b 163e 9315 553e
000000f0: 2671 443e bf36 a93e 365b 173d db99 973e
00000100: ec7a ca3e 8900 2e3e 06b2 df3e c361 773e
00000110: ca32 833e d2d0 e73c 9290 063e ab0f fc3d
00000120: 2e91 253e a103 7b3e 881d 803e 8674 2b3e
00000130: 5dd3 bd3e eda9 ddbd 2795 cc3d 7409 b33e
00000140: 03f5 0b3e a0b1 993b c8a4 163e 4491 fbbc
00000150: eb3f a3bd 5aa7 36bd e818 dc3d 1187 4a3b
00000160: 0f80 47bd df1a 793e 3c2c 9a3e 311a e43d
00000170: 1748 b9bd f31e 89bd 57fa 943e 4867 bd3e
00000180: f83e 82bd 783c ed3d 440c 253e c007 d4bd
00000190: 1fe5 333e d882 043e 94ad 0bbe 78b6 0b3e
000001a0: d0cd 80be 4e29 dbbc fefe a53e b4f0 8a3e
000001b0: bc35 1bbe 080a 973e eafb 093f f098 c23e
000001c0: 4522 203f 6f3b 8b3e bd79 e13e 1d5b dd3d
000001d0: f7ea 7e3e 0005 45be 5df8 82bb cf0e d1bd
000001e0: bfa5 5f3b bbe7 8d3e e709 4c3e dd8c 803d
000001f0: db87 84bc d6cc 453e 00a0 703e 2832 d33e
00000200: 209f 203e 5b94 8d3d 04b9 f6bc 2e7b d83d
00000210: e675 9d3d 7be4 983d 7bfb 6e3e 7ca1 293d
00000220: 8bf2 f63d 0501 963d 30f0 7c3b 560b 98bd
00000230: 7a70 923e e908 113d 8510 413e 1fde 8f3d
00000240: 0188 993e f91c 9c3e 845c aabd 6b81 96bd
00000250: c37d 483e f0fa 203e 3996 613e 70e3 9f3e
00000260: 9b78 833e 49b8 7bbd 00f8 c5bd 8973 c8bd
00000270: 2a0d fabd f229 1ebe 85a3 71bd a8ab 1c3d
00000280: 2afd 9cbd 9686 8bbe d12d f03d aaaf e43d
00000290: fdb0 233e 64d7 2a3e 033d ab3e 9a20 7e3e
000002a0: 8abc 6e3e 87f8 363e 0d24 493e 46ac b53e
000002b0: dd60 fd3d 5b5d 19be 7a87 0bbd fb4a ee3d
000002c0: eb57 233e 9584 403e 23c4 cfbd 764f 3e3e
000002d0: 333c 7f3e 09fb b13e ec29 b03e 812d 8c3e
000002e0: 3a2f a43d 257a 85bd c733 8d3d 9f31 0abd
000002f0: faf7 b43e ec61 623e 5ec0 ba3d f682 c53e
00000300: 5138 d33d 07a1 5a3e 59c4 d83d 9853 9b3d
00000310: dd72 5f3e 8d14 323e 5deb 8a3e 17a2 443e
00000320: 16f6 333c f5d7 44be 361a bdbe 7a83 22be
00000330: f7d0 80bd 4e6d 3fbc 387d aa3d 03eb 713e
00000340: 8376 b73e 4a4e 9f3e 47d3 6c3e 7ec6 543e
00000350: cf5d 903d ff8a 073d ad15 df3d bd23 af3e
00000360: 0dbd 8d3d 6820 033f 8370 913e 0eec 55be
00000370: 3115 f93b cfb3 74bc 4c64 ea3d 0ed1 513e
00000380: e8b2 ea3c 4a6f 983c e790 583e 60d9 a33d
00000390: 091d 1fbc f0a3 3d3c 7c37 af3d b082 963d
000003a0: f5ee 49bb e6db e6bc f46b 953e 2545 5e3e
000003b0: aa35 4d3e 35f1 3a3e c428 953e 5bd9 ef3d
000003c0: 9097 eb3d a125 ad3e 137d 723e ce25 433e
000003d0: 078c 1a3e f288 163e 3a60 15bd 2ea6 fd3d
000003e0: 6c24 ca3e 2a31 d73e fb47 5b3e fafa 4f3e
000003f0: 80fb 8f3c 409b 213d 28c8 a83e e226 663e

rnn_layer.rnn_layer.weight_hh_l0 f4 [256, 64]
0.14443143 0.039081182 -0.14354947 -0.012589464 0.34149617 0.080635935 0.041435722 -0.07841164
-0.16394806 0.080936834 -0.0033591203 0.06934399 0.028735543 -0.20035711 0.15715058 0.028746504
-0.11159218 0.20157127 0.0155240195 -0.1773688 -0.0026769598 -0.046656564 -0.049818914 0.11825579
-0.117841244 0.11955689 -0.3184648 0.024093365 -0.053762816 -0.17346196 0.3054909 -0.122991726
0.29101786 -0.0016529319 0.14899604 0.090592526 -0.090595394 0.2137152 0.40404576 0.2407051
-0.21141082 0.28996545 0.12905094 0.21793355 -0.10600446 0.21729866 0.27740932 0.1221047
0.060813844 0.20492223 0.068382874 0.07543293 0.27880526 0.23075147 0.040410414 0.17452438
-0.12986568 0.32604915 0.17611536 0.058016617 0.24698067 0.10774418 -0.14174688 0.10625989
-0.015184296 0.10387689 -0.011963038 -0.029338643 0.24500367 0.12063029 0.23222782 -0.15068768
-0.056167033 -0.013826882 0.11932844 0.020613939 -0.163445 -0.22639248 -0.09880007 0.003201872
-0.1809782 -0.011182979 -0.012574708 -0.2161468 -0.16117658 -0.20606852 -0.12551942 0.04801751
-0.20619597 -0.23478378 -0.11374584 -0.024579877 -0.17733285 -0.029935187 0.12554125 -0.124976166
0.055098016 -0.13321109 0.090101846 0.1415092 -0.118400045 0.29721788 0.26956376 0.1602363
-0.22159846 0.23943807 0.04020524 0.15100092 -0.14739835 0.2842009 0.032031745 -0.06519998
0.05594377 0.20727658 0.013273984 0.14435597 -0.093960665 0.22304702 0.035536565 0.00971427
-0.12814952 0.23447835 -0.03907798 0.17285457 0.15131004 0.022744546 -0.048805695 0.047605574
0.13882546 0.034406133 0.08104589 0.06623757 0.17560269 -0.0076440345 0.23015021 -0.15393266
0.0014184633 0.1275002 0.116129324 0.13391608 0.0030455282 -0.03948494 0.09190345 -0.015375817
-0.0133979125 0.043157037 0.1937062 -0.012787353 -0.110748924 -0.085527636 -0.036899805 0.22714886
-0.040139887 -0.0017233249 -0.047403943 0.076031506 -0.06461635 -0.04908154 0.051778063 -0.025029356
0.19404063 -0.05863944 0.02036401 0.10595606 -0.092542246 -0.017742902 0.2540544 0.28095675
-0.053615727 0.027355714 -0.09410148 0.092067696 -0.0029913737 0.058306552 0.12777354 -0.028533151
0.22512847 0.3201208 0.04371373 0.14129299 0.12088264 0.24899222 0.15453032 0.003913138
0.06904369 -0.027681025 0.111079864 0.028971268 0.1181558 0.1738033 0.021869881 0.19713995
-0.112901025 -0.06879507 0.011304793 0.34181395 0.08919521 -0.039446507 -0.037831146 -0.27633917
-0.24070862 -0.14851014 -0.079263434 -0.19311488 0.04079177 -0.16035886 0.0058201985 -0.13678603
-0.18830873 -0.09263865 -0.051549975 -0.2488283 -0.047008537 0.1080036 -0.09989739 -0.1576891
0.07923995 0.18496257 -0.22718795 -0.12540576 -0.0046826466 -0.16319926 0.11715845 -0.0070654056
-0.07278998 -0.12436694 -0.044062752 0.041266147 -0.15778852 0.06404896 -0.13916053 -0.07511049
-0.26737577 -0.08326059 -0.12378109 0.14906317 0.012793807 0.007641268 -0.119330205 -0.19958861
0.11363594 0.17961717 -0.1416633 0.045985766 -0.22447047 0.06070547 -0.09513315 -0.2063419
-0.18623482 -0.054936536 -0.068012774 -0.02458556 0.015526494 -0.055803563 -0.11036248 -0.148217
00000000: d5e5 133e 9713 203d a2fe 12be 0a44 4ebc
00000010: 96d8 ae3e 7424 a53d 81b8 293d 4896 a0bd
00000020: 00e2 27be 36c2 a53d b024 5cbb 3904 8e3d
00000030: cd66 eb3c 6a2a 4dbe 15ec 203e ca7d eb3c
00000040: 718a e4bd b368 4e3e 7558 7e3c 2ba0 35be
00000050: ef6f 2fbb f41a 3fbd eb0e 4cbd 1730 f23d
00000060: c056 f1bd 3eda f43d d10d a3be 735f c53c
00000070: 6636 5cbd 03a0 31be 4e69 9c3e 16e3 fbbd
00000080: 4b00 953e 31a7 d8ba 6b92 183e 9388 b93d
00000090: 148a b9bd 28d8 5a3e 16df ce3e 667b 763e
000000a0: 147c 58be 5a76 943e ee25 043e f929 5f3e
000000b0: de18 d9bd 8a83 5e3e 9808 8e3e 0712 fa3d
000000c0: f017 793d 22d7 513e 520c 8c3d 947c 9a3d
000000d0: 90bf 8e3e 1d4a 6c3e 6485 253d 85b6 323e
000000e0: 82fb 04be eaef a63e 9657 343e d5a2 6d3d
000000f0: 80e8 7c3e fba8 dc3d 1826 11be c99e d93d
00000100: 8ec7 78bc 68bd d43d 9e00 44bc 9857 f0bc
00000110: 3ee2 7a3e 030d f73d 21cd 6d3e df4d 1abe
00000120: 670f 66bd 258a 62bc 7862 f43d 90de a83c
00000130: 205e 27be 6ed3 67be b157 cabd 80d6 513b
00000140: 5952 39be d038 37bc 2606 4ebc 9655 5dbe
00000150: 790b 25be a003 53be 2a88 00be 02ae 443d
00000160: 0925 53be 296b 70be 94f3 e8bd bd5b c9bc
00000170: be96 35be a33a f5bc e38d 003e 81f3 ffbd
00000180: 75ae 613d 7d68 08be 5187 b83d cae7 103e
00000190: b97b f2bd f12c 983e 4304 8a3e fc14 243e
000001a0: b5ea 62be 412f 753e 40ae 243d fc9f 1a3e
000001b0: 98ef 16be c882 913e b833 033d 9187 85bd
000001c0: 4b25 653d 5040 543e 207b 593c 0dd2 133e
000001d0: 736e c0bd 7066 643e ca8e 113d 9a28 1f3c
000001e0: a139 03be 181b 703e 3b10 20bd ca00 313e
000001f0: 05f1 1a3e c552 ba3c 7be8 47bd 10fe 423d
00000200: 4328 0e3e 72ed 0c3d 63fb a53d 90a7 873d
00000210: 31d1 333e cf7a fabb 7fac 6b3e 86a0 1dbe
00000220: bbeb b93a 6a8f 023e 36d5 ed3d 4c21 093e
00000230: 7c97 473b f6ba 21bd e037 bc3d daea 7bbc
00000240: eb82 5bbc 6fc5 303d eb5a 463e 0c82 51bc
00000250: 55d0 e2bd 1d29 afbd 4024 17bd b699 683e
00000260: b969 24bd 30e1 e1ba a32a 42bd 68b6 9b3d
00000270: 9455 84bd ba09 49bd 3c15 543d 5d0a cdbc
00000280: 96b2 463e e92f 70bd 6dd2 a63c 7eff d83d
00000290: ca86 bdbd 9059 91bc 6b13 823e 90d9 8f3e
000002a0: 2a9c 5bbd 1719 e03c 47b8 c0bd fd8d bc3d
000002b0: ec0a 44bb dad2 6e3d 11d7 023e 5bbe e9bc
000002c0: 1488 663e e0e6 a33e 2b0d 333d 1caf 103e
000002d0: 5191 f73d d1f7 7e3e 323d 1e3e c839 803b
000002e0: c766 8d3d 51c3 e2bc d77d e33d 2755 ed3c
000002f0: abfb f13d 7ef9 313e 7728 b33c 0edf 493e
00000300: a738 e7bd 6ee4 8cbd bd37 393c 3d02 af3e
00000310: faab b63d a992 21bd d5f4 1abd 547c 8dbe
00000320: 527c 76be 0b13 18be de54 a2bd e8bf 45be
00000330: 4515 273d 1d35 24be 5db7 be3b a311 0cbe
00000340: 01d4 40be 55b9 bdbd 1126 53bd d9cc 7ebe
00000350: 068c 40bd fe30 dd3d 0197 ccbd 4079 21be
00000360: 8e48 a23d d466 3d3e f5a3 68be 5e6a 00be
00000370: e370 99bb b51d 27be c5f0 ef3d eb84 e7bb
00000380: ea12 95bd 18b4 febd 257b 34bd b106 293d
00000390: 5093 21be 1a2c 833d 1980 0ebe 87d3 99bd
000003a0: 7ae5 88be 8784 aabd f180 fdbd 04a4 183e
000003b0: 1e9d 513c 9a63 fa3b 6563 f4bd f560 4cbe
000003c0: f6b9 e83d 90ed 373e 2f10 11be 925b 3c3d
000003d0: 96db 65be 4da6 783d 2bd5 c2bd 4b4b 53be
000003e0: 57b4 3ebe 2205 61bd 484a 8bbd a867 c9bc
000003f0: d662 7e3c 4792 64bd b905 e2bd 32c6 17be

rnn_layer.rnn_layer.bias_ih_l0 f4 [256]
0.06755929 0.18826422 0.049158797 0.038978834 0.004109166 0.18691294 0.28122112 0.039114833
0.24299626 0.13059956 0.098656595 -0.030509254 -0.032661673 0.2277348 0.06584174 -0.11469241
0.018211424 -0.11313805 0.066365294 0.31919527 0.041071072 0.14179495 -0.12280214 -0.043057628
0.17163894 0.07021676 0.2412599 0.04894754 0.25233555 0.19150344 0.0439083 0.17112859
0.06759316 0.1456731 0.08020871 -0.10324353 0.15982127 0.035836145 0.28901717 0.108490065
0.015000471 0.17274989 0.2908348 0.15444517 0.079619914 0.1646359 -0.10462489 -0.07412952
0.069916494 0.005593162 0.2654999 -0.15792288 0.30128992 0.11690993 0.024351757 0.33734626
-0.020457894 0.4228753 -0.09070497 0.16958682 0.23758215 0.31064883 -0.003466339 0.3182764
-0.012888172 0.053482164 -0.063146055 0.06697107 0.01336949 -0.06207482 -0.1292149 -0.10187027
-0.11642207 0.09252988 0.07154904 -0.0039751288 -0.11409038 0.04359738 -0.009247968 -0.048066404
0.012395975 -0.043519333 -0.009028175 -0.16969086 0.09403544 -0.06258469 0.01121834 -0.016946293
-0.24500148 0.057365116 0.043270864 -0.047152936 -0.07315231 -0.18839282 0.014777838 -0.011180775
-0.038468152 -0.04141066 0.048973486 -0.034565445 -0.013090958 0.020494564 -0.1298577 -0.15192632
-0.00093381846 0.041251503 -0.014913167 0.13102181 -0.029201167 -0.094334915 0.014542197 0.03874324
-0.072051406 -0.1311851 -0.034510214 -0.03410178 -0.06147065 0.0023705447 -0.1269323 -0.015636154
-0.029238688 0.032414034 -0.11382698 -0.07915424 0.001852777 -0.014354602 -0.025501389 0.04293198
-0.12463246 -0.1348476 -0.022503484 -0.100977525 0.1301191 0.07304693 0.12872244 -0.1459124
-0.003079784 0.013585347 0.03062757 0.019555567 -0.0598994 -0.085677296 -0.062913544 -0.092522606
-0.105709255 -0.07713674 -0.082540974 0.058939658 -0.046119932 -0.038281478 0.036583755 0.083872624
-0.119333096 -0.08165882 0.114732 0.06350812 -0.09731127 -0.09910381 -0.16801459 0.052603487
-0.062909454 -0.0342193 -0.015970634 0.076341465 -0.12898551 -0.020127106 -0.050479308 -0.03631471
-0.103409685 -0.0038041533 0.051741634 0.09112646 -0.07498756 0.008646471 -0.08895419 -0.11367987
-0.07866081 -0.08093248 0.08218488 0.038113087 -0.16408625 0.13906872 -0.054367483 -0.047062818
0.020122236 0.09980844 -0.078483395 0.031711638 -0.012797931 -0.10557683 -0.12540673 -0.10099645
0.19268177 0.11774651 0.17499588 0.24980605 0.15444139 0.4607561 0.15574704 0.2436229
0.21455573 0.31560624 0.25821635 0.38651168 -0.0038435713 0.24109201 0.32164922 0.0717273
0.18868046 0.2997951 0.20519152 0.41031304 0.16386616 0.14897288 0.3318945 0.30715203
0.0998423 0.17898074 0.35049713 0.27249843 0.054424882 0.33416957 0.14432181 0.23498811
0.17138346 0.2592298 0.40538487 0.43740883 0.40614894 0.05392703 0.36691052 0.19043502
0.11691228 0.23611759 0.6116841 0.10456776 0.35408872 -0.06230289 0.14042322 0.16747105
0.3924081 -0.027634004 0.22273968 0.17745103 0.20265613 0.23694907 0.25779244 0.22302318
0.17224135 0.29212007 0.34785295 0.375836 0.24244483 0.38851812 0.14440042 0.25850296
00000000: 865c 8a3d 56c8 403e bc5a 493d 45a8 1f3d
00000010: 2fa6 863b 1b66 3f3e 37fc 8f3e e036 203d
00000020: 03d4 783e e4bb 053e 780c ca3d 8bee f9bc
00000030: 3fc8 05bd 5033 693e 09d8 863d dbe3 eabd
00000040: 2030 953c ecb4 e7bd 87ea 873d 906d a33e
00000050: 243a 283d b232 113e b07f fbbd 325d 30bd
00000060: 1ec2 2f3e cecd 8f3d d60c 773e 377d 483d
00000070: 2032 813e 7a19 443e 31d9 333d 553c 2f3e
00000080: 486e 8a3d 542b 153e 7744 a43d 5871 d3bd
00000090: 30a8 233e ecc8 123d 0ffa 933e 0a30 de3d
000000a0: 89c4 753c 59e5 303e 4de8 943e e026 1e3e
000000b0: c40f a33d 5096 283e 9345 d6bd 38d1 97bd
000000c0: 6130 8f3d d846 b73b 9aef 873e 89b6 21be
000000d0: ac42 9a3e 796e ef3d 567d c73c a6b8 ac3e
000000e0: 5097 a7bc 1c83 d83e 87c3 b9bd 2ba8 2d3e
000000f0: bc48 733e 5d0d 9f3e 852b 63bb 20f5 a23e
00000100: e928 53bc 1d10 5b3d b852 81bd 2128 893d
00000110: b50b 5b3c 2b42 7ebd e950 04be 5ca1 d0bd
00000120: b26e eebd 4e80 bd3d 4e88 923d cc41 82bb
00000130: 38a8 e9bd 2b93 323d ca84 17bc 47e1 44bd
00000140: 7d18 4b3c 5441 32bd e9ea 13bc 71c3 2dbe
00000150: a795 c03d 672c 80bd 21cd 373c f4d2 8abc
00000160: abe1 7abe aff7 6a3d ca3c 313d 7023 41bd
00000170: e1d0 95bd 0cea 40be bf1e 723c 922f 37bc
00000180: c890 1dbd 399e 29bd 6c98 483d 7f94 0dbd
00000190: 757b 56bc 37e4 a73c 6bf9 04be 9392 1bbe
000001a0: 7fcb 74ba 56f7 283d 5b56 74bc 952a 063e
000001b0: 4937 efbc aa32 c1bd 6542 6e3c 3bb1 1e3d
000001c0: b08f 93bd 6355 06be 955a 0dbd 4fae 0bbd
000001d0: a6c8 7bbd 245b 1b3b 8afa 01be 6417 80bc
000001e0: f985 efbc 94c4 043d 1f1e e9bd 9e1b a2bd
000001f0: e1d8 f23a 912f 6bbc 4ae8 d0bc 72d9 2f3d
00000200: 4e3f ffbd 7d15 0abe 3a59 b8bc 4ecd cebd
00000210: f13d 053e a199 953d d1cf 033e 0f6a 15be
00000220: 34d6 49bb 1395 5e3c abe6 fa3c ff32 a03c
00000230: 1359 75bd 9477 afbd d1d8 80bd 7e7c bdbd
00000240: 187e d8bd def9 9dbd 3e0b a9bd b66a 713d
00000250: 41e8 3cbd 0acd 1cbd d9d8 153d 69c5 ab3d
00000260: e964 f4bd bd3c a7bd 9cf8 ea3d 8c10 823d
00000270: 224b c7bd f0f6 cabd 040c 2cbe c176 573d
00000280: acd6 80bd 8929 0cbd d9d4 82bc ea58 9c3d
00000290: c714 04be 9ae1 a4bc 64c3 4ebd bcbe 14bd
000002a0: 75c8 d3bd 1a4f 79bb 09ef 533d 82a0 ba3d
000002b0: 1493 99bd eea9 0d3c 9d2d b6bd fed0 e8bd
000002c0: eb18 a1bd eebf a5bd 8c50 a83d 781c 1c3d
000002d0: 3a06 28be 0868 0e3e 70b0 5ebd f1c4 40bd
000002e0: 63d7 a43c 5e68 cc3d e7bb a0bd 10e4 013d
000002f0: 6aae 51bc aa38 d8bd 9f6a 00be 3ad7 cebd
00000300: 5f4e 453e 1525 f13d 1f32 333e 28cd 7f3e
00000310: e225 1e3e 39e8 eb3e 277c 1f3e 4878 793e
00000320: 7fb4 5b3e 2497 a13e ef34 843e dce4 c53e
00000330: 6de4 7bbb d3e0 763e 35af a43e c3e5 923d
00000340: 7335 413e be7e 993e ba1d 523e 8d14 d23e
00000350: 88cc 273e 598c 183e 13ee a93e 0843 9d3e
00000360: 1f7a cc3d ba46 373e 5c74 b33e ea84 8b3e
00000370: a0ec 5e3d 4618 ab3e 19c9 133e b9a0 703e
00000380: 257f 2f3e c5b9 843e 9b8e cf3e 0df4 df3e
00000390: c1f2 cf3e 97e2 5c3d b2db bb3e 6601 433e
000003a0: b56f ef3d cfc8 713e 5497 1c3f 9f27 d63d
000003b0: 1e4b b53e 5131 7fbd 1bcb 0f3e 887d 2b3e
000003c0: b7e9 c83e b560 e2bc df15 643e b9b5 353e
000003d0: 1785 4f3e c7a2 723e 5ffd 833e 3060 643e
000003e0: 0960 303e c390 953e c819 b23e 946d c03e
000003f0: 7543 783e d9eb c63e b4dd 133e 805a 843e

rnn_layer.rnn_layer.bias_hh_l0 f4 [256]
0.027057696 0.11686385 0.07588503 -0.039152455 0.12364918 0.23050892 0.4163996 0.087280236
0.19533783 0.1037504 0.053827543 -0.008858338 -0.11778256 0.23898491 0.0027079985 0.0053065284
0.061063968 -0.09374565 0.0839282 0.3565267 0.0062849657 0.083492614 -0.14224486 0.034095027
0.28872496 0.07555336 0.21219063 -0.009481377 0.13301681 0.12406346 0.18518138 0.06975973
0.0997785 0.00940282 0.19175059 0.025722144 0.24132563 0.11542835 0.25297922 0.1373024
0.09299362 0.2730594 0.27087003 0.052319247 0.17682977 0.07925896 0.039659005 -0.09163474
0.14200526 0.01021666 0.30962825 -0.1668614 0.18463 0.24812523 0.012898072 0.2726814
0.1298308 0.3469828 -0.03455652 0.17468719 0.18904503 0.22781977 -0.026300458 0.17518936
0.0133076925 -0.09851997 -0.09397781 0.18967322 0.03586532 -0.102635406 -0.13588266 0.0112116765
-0.20846009 0.015960775 0.06077198 -0.1310955 -0.006494231 0.05398735 0.023847464 0.0004527735
-0.08772587 -0.025092531 -0.059380263 -0.09494695 0.0606502 -0.07409321 -0.019720232 -0.04153961
-0.31498602 0.070910744 -0.13065109 -0.09455541 -0.06617667 -0.11428858 -0.025240112 0.04602324
-0.05140504 0.11081714 0.09071977 0.06749693 0.10148465 0.07080413 -0.1596193 -0.040040005
-0.082690686 -0.0051398096 0.12727375 0.06669286 0.048529804 -0.013785411 -0.027646048 -0.05625742
-0.002313243 0.0021599429 -0.018654408 -0.07685818 0.018663727 -0.069757305 -0.123841584 -0.03377925
-0.04915385 -0.12811267 -0.065387785 -0.031421036 -0.15263 0.020415973 -0.015390803 0.11221935
-0.06965588 -0.17501704 -0.049361855 -0.09149307 -0.016612623 0.078865156 0.07629748 -0.17840691
0.07009242 -0.0020959673 -0.10274713 -0.110948816 -0.124024644 -0.14298803 -0.10635638 -0.08009449
-0.05877092 -0.017307602 -0.14230926 -0.041935306 -0.14378078 -0.040186565 -0.09698415 0.045312237
-0.104315415 -0.030167539 -0.03768765 0.03582995 -0.08836046 -0.020628722 -0.021686 -0.022635665
-0.015067402 -0.0988956 0.06862297 -0.051407177 0.03372609 0.06647561 0.045117017 -0.044321023
0.012549755 0.013807857 0.02485635 0.015104589 0.0061387722 0.12186886 -0.0081452355 -0.11727357
-0.003565851 -0.028999347 0.15707539 0.010975705 -0.05787061 0.0855644 -0.10867687 0.011889428
0.064582065 0.1163847 0.013975013 -0.059495028 0.0066361697 0.002630227 -0.016026564 0.06593091
0.20690195 0.14563578 0.014673206 0.09436273 0.2787801 0.5870816 0.17937087 0.25915742
0.17817394 0.28779337 0.20580958 0.332564 0.080674484 0.23903733 0.32898724 0.16346154
0.2016297 0.23412293 0.11462994 0.41365674 0.16286325 0.014283729 0.37896338 0.25609165
0.15680727 0.20086057 0.31441793 0.29723564 0.015158141 0.2757264 0.1746285 0.190837
0.2097897 0.22596668 0.3736082 0.31139916 0.46746096 0.16389233 0.22598906 0.11045362
0.16154036 0.09318387 0.5695558 0.10933506 0.35284543 0.019363577 0.22968066 0.17775469
0.28369397 -0.02063643 0.21506396 0.21224457 0.17977642 0.24884334 0.20981617 0.26395532
0.17038971 0.46432233 0.19248784 0.37498796 0.3845318 0.48893666 0.11503828 0.18447046
00000000: 1aa8 dd3c 5056 ef3d 9c69 9b3d 535e 20bd
00000010: c83b fd3d 880a 6c3e 5432 d53e fbbf b23d
00000020: a406 483e 177b d43d 457a 5c3d 9022 11bc
00000030: fc37 f1bd 76b8 743e ad78 313b 63e2 ad3b
00000040: 361e 7a3d b8fd bfbd 8ce2 ab3d ab8a b63e
00000050: 1df2 cd3b 2dfe aa3d a3a8 11be 3aa7 0b3d
00000060: c2d3 933e b8bb 9a3d 8048 593e c757 1bbc
00000070: 8f35 083e fc14 fe3d 30a0 3d3e 30de 8e3d
00000080: ac58 cc3d 490e 1a3c 445a 443e 3fb7 d23c
00000090: 111e 773e b365 ec3d 7e86 813e 0099 0c3e
000000a0: 7073 be3d 71ce 8b3e 7aaf 8a3e b54c 563d
000000b0: dd12 353e 8652 a23d 7b71 223d ffaa bbbd
000000c0: d469 113e c763 273c 9887 9e3e b7dd 2abe
000000d0: a60f 3d3e 8a14 7e3e 6f52 533c e59c 8b3e
000000e0: 5ef2 043e bba7 b13e 238b 0dbd 33e1 323e
000000f0: 0595 413e 9649 693e 0f74 d7bc d764 333e
00000100: 8208 5a3c d7c4 c9bd 7077 c0bd b239 423e
00000110: 84e7 123d 8332 d2bd d324 0bbe 2eb1 373c
00000120: 9076 55be 2cc0 823c 0aec 783d e63d 06be
00000130: 8fcd d4bb d721 5d3d c25b c33c 3b62 ed39
00000140: 9fa9 b3bd da8e cdbc b838 73bd 8c73 c2bd
00000150: 586c 783d 2ebe 97bd 538c a1bc 7025 2abd
00000160: d945 a1be a739 913d 66c9 05be 44a6 c1bd
00000170: a287 87bd 2210 eabd 5ac4 cebc dd82 3c3d
00000180: 178e 52bd 19f4 e23d 49cb b93d d53b 8a3d
00000190: 2fd7 cf3d c101 913d 3e73 23be fd00 24bd
000001a0: bc59 a9bd d96b a8bb 0d54 023e 4496 883d
000001b0: 30c7 463d 34dc 61bc f779 e2bc 2e6e 66bd
000001c0: c799 17bb d48d 0d3b 21d1 98bc d267 9dbd
000001d0: ace4 983c ebdc 8ebd a8a0 fdbd 1c5c 0abd
000001e0: 8c55 49bd f82f 03be 08ea 85bd 58b3 00bd
000001f0: 0a4b 1cbe 663f a73c b529 7cbc 42d3 e53d
00000200: bea7 8ebd ab37 33be a82f 4abd b860 bbbd
00000210: 3217 88bc 0e84 a13d da41 9c3d 4db0 36be
00000220: 9d8c 8f3d 7f5c 09bb 166d d2bd 2239 e3bd
00000230: a200 febd 746b 12be 60d1 d9bd 9408 a4bd
00000240: c7b9 70bd acc8 8dbc 85b9 11be 5bc4 2bbd
00000250: 453b 13be ab9a 24bd a09f c6bd 5399 393d
00000260: 52a3 d5bd ea21 f7bc 5e5e 1abd 6dc2 123d
00000270: 54f6 b4bd 91fd a8bc d7a6 b1bc 6e6e b9bc
00000280: 44dd 76bc c789 cabd 338a 8c3d 5590 52bd
00000290: 5e24 0a3d 5d24 883d 9fcc 383d f689 35bd
000002a0: 7d9d 4d3c 5a3a 623c 8b9f cb3c 3d79 773c
000002b0: c127 c93b 6296 f93d 9873 05bc 202d f0bd
000002c0: 0db1 69bb 0a90 edbc 5fd8 203e 72d3 333c
000002d0: bc09 6dbd 633c af3d fb91 debd e0cb 423c
000002e0: 9a43 843d 1a5b ee3d 74f7 643c 0fb1 73bd
000002f0: 3a74 d93b e35f 2c3b 244a 83bc c906 873d
00000300: 1bde 533e 8c21 153e e367 703c 3f41 c13d
00000310: 44bc 8e3e fb4a 163f ffac 373e 48b0 843e
00000320: 3b73 363e a759 933e bfbf 523e d445 aa3e
00000330: aa38 a53d 34c6 743e 0471 a83e 7662 273e
00000340: 0478 4e3e ecbd 6f3e 1ac3 ea3d d1ca d33e
00000350: a0c5 263e 4d06 6a3c 7d07 c23e 721e 833e
00000360: 1692 203e 65ae 4d3e 63fb a03e 452f 983e
00000370: da59 783c 032c 8d3e d0d1 323e c66a 433e
00000380: 1cd3 563e cf63 673e 9349 bf3e b66f 9f3e
00000390: 0b57 ef3e 64d3 273e ad69 673e 8235 e23d
000003a0: d66a 253e 2fd7 be3d 69ce 113f 0feb df3d
000003b0: 28a8 b43e 5da0 9e3c 6831 6b3e 5305 363e
000003c0: 5640 913e bb0d a9bc ba39 5c3e a456 593e
000003d0: 4f17 383e cad0 7e3e 0dda 563e 2725 873e
000003e0: a47a 2e3e a8bb ed3e 881b 453e 6cfe bf3e
000003f0: 5ae1 c43e e855 fa3e 3199 eb3d d3e5 3c3e

rnn_layer.rnn_layer.weight_ih_l0_reverse f4 [256, 46]
0.01068099 -0.08381347 -0.07761932 -0.22405267 0.14426045 0.18534648 -0.256125 0.36021113
0.22378889 0.03432729 0.016112776 0.09128317 0.13991068 0.17415866 -0.008174881 -0.39030427
-0.53287965 -0.023014383 0.041356523 0.09749836 0.30160198 0.067352206 -0.064926006 -0.24779728
-0.25824165 -0.2899182 -0.021206925 0.06884677 -0.16171935 -0.17593506 0.04233178 0.25501463
0.040713586 0.011788318 0.25252676 0.07720585 0.35485798 0.46482435 0.3466416 0.2556783
0.26077172 0.1509652 0.19044778 0.18448028 0.24478586 0.23470953 0.054472234 0.025235372
-0.08846271 -0.12347215 0.1553382 -0.0021918032 0.12656239 0.18429293 -0.078220315 -0.09891253
0.011429487 -0.08177828 0.30826586 0.3435622 0.18611926 -0.08971495 -0.2297662 0.6097157
0.37132257 0.4164257 0.39767265 -0.22971238 0.0112601165 0.124381915 0.056791373 0.113794975
0.015841316 0.15110588 -0.30601272 -0.17186095 0.20875718 0.23855871 0.17541535 0.22858007
-0.09633782 -0.005159721 0.12934424 -0.106544144 -0.08319627 0.10807686 0.13614522 0.19940257
-0.17443459 -0.23155111 -0.07932286 0.06560244 0.07314387 -0.0210312 0.2287332 0.14163825
0.0053315596 0.3458683 0.09071066 -0.10362805 0.018080771 0.2442565 -0.030498303 -0.38929585
-0.467894 -0.030824065 0.10215497 -0.109931685 0.16957718 -0.20781362 -0.28891864 -0.23031087
-0.06342377 0.14279155 0.094264984 0.23725703 0.014326872 0.17134047 0.024038406 -0.034826424
-0.010169242 -0.03794543 -0.0126792425 0.05850664 0.251125 0.28377834 0.2882932 0.18658681
0.14208771 0.10999949 0.34154835 0.3113925 0.18693233 0.15935193 0.026467806 0.16472325
0.16477197 0.06667698 0.019188138 -0.05304284 -0.19921912 -0.12582266 0.21123303 -0.028304912
0.20453149 0.04237325 0.23955868 -0.08616941 0.06381256 -0.106578335 -0.12972675 0.06349603
0.19416218 -0.023926497 -0.1320553 0.42305115 0.42376286 0.4395466 0.3579085 -0.0013768562
0.12793438 -0.26958984 -0.14025141 0.10351074 0.15818018 0.037382975 -0.20841345 -0.24059711
0.22895066 0.1409761 0.06790488 -0.11899351 -0.16278608 0.056808665 -0.025206894 -0.0103768
0.07870013 0.07713538 0.21736793 0.38051867 0.18743113 0.17921792 0.13256405 0.19940408
-0.040014673 0.042490464 0.38458088 0.22660108 0.2049108 0.16813143 -0.08439128 0.01971124
0.115649395 0.44535407 0.20726576 0.36552837 0.5303721 0.06150292 0.22278927 0.34964693
0.10569628 0.17202929 0.4017055 0.2624674 0.22978972 0.19932339 0.14467323 0.10579485
0.06565946 0.41536456 0.2626246 0.13017215 0.23658167 0.06715074 -0.0155380275 -0.07686775
0.14308803 0.23355728 0.14471641 0.118225716 0.16434416 0.259282 0.23080991 0.13685746
-0.027320355 -0.050503746 -0.052370206 0.047826197 0.26394483 0.015812635 -0.087319605 -0.08679024
0.15446636 0.078916006 -0.19611737 0.174021 0.15063019 -0.32665417 -0.10672069 0.4365564
-0.24526519 -0.41990355 -0.15037675 -0.0034137778 -0.12165921 -0.06119815 0.097549945 -0.12822968
-0.50119275 -0.18961881 -0.0076389667 0.17801958 -0.19832557 0.08341814 0.11239986 0.18990333
00000000: 52ff 2e3c 66a6 abbd e1f6 9ebd 106e 65be
00000010: 03b9 133e 78cb 3d3e d122 83be 986d b83e
00000020: ea28 653e c69a 0c3d f1fe 833c acf2 ba3d
00000030: bf44 0f3e a656 323e f0ef 05bc f6d5 c7be
00000040: cd6a 08bf a988 bcbc 7565 293d 38ad c73d
00000050: 936b 9a3e f4ef 893d edf7 84bd 92be 7dbe
00000060: 4038 84be 2970 94be 25ba adbc 89ff 8c3d
00000070: c299 25be 5228 34be 1764 2d3d 4791 823e
00000080: 4ac3 263d ca23 413c 304b 813e 1a1e 9e3d
00000090: f2af b53e 75fd ed3e 027b b13e 44e8 823e
000000a0: df83 853e 9f96 1a3e be04 433e 66e8 3c3e
000000b0: 25a9 7a3e b257 703e 471e 5f3d 69ba ce3c
000000c0: f02b b5bd f7de fcbd fa10 1f3e 5ba4 0fbb
000000d0: 9299 013e 49b7 3c3e f931 a0bd a792 cabd
000000e0: be42 3b3c 5f7b a7bd 06d5 9d3e 62e7 af3e
000000f0: 0c96 3e3e 79bc b7bd d547 6bbe 5416 1c3f
00000100: fe1d be3e c035 d53e c09b cb3e b939 6bbe
00000110: 5a7c 383c f2bb fe3d 129e 683d 570d e93d
00000120: a6c5 813c 80bb 1a3e b3ad 9cbe 51fc 2fbe
00000130: 71c4 553e bc48 743e 15a0 333e e510 6a3e
00000140: c34c c5bd e012 a9bb d172 043e d133 dabd
00000150: ce62 aabd 6757 dd3d a769 0b3e 3030 4c3e
00000160: fb9e 32be bc1b 6dbe 0674 a2bd 925a 863d
00000170: 74cc 953d a049 acbc 0939 6a3e 9e09 113e
00000180: 5db4 ae3b a615 b13e 83c6 b93d f13a d4bd
00000190: 201e 943c 601e 7a3e 94d7 f9bc c951 c7be
000001a0: cd8f efbe c082 fcbc a036 d13d dd23 e1bd
000001b0: a4a5 2d3e 18cd 54be 25ed 93be 9dd6 6bbe
000001c0: 52e4 81bd f337 123e 000e c13d 82f3 723e
000001d0: 42bb 6a3c e073 2f3e 31ec c43c 27a6 0ebd
000001e0: e49c 26bc ab6c 1bbd 99bc 4fbc a9a4 6f3d
000001f0: 7593 803e 654b 913e 2b9b 933e 9d10 3f3e
00000200: 717f 113e 6a47 e13d 6ddf ae3e d66e 9f3e
00000210: 306b 3f3e 272d 233e 03d3 d83c 36ad 283e
00000220: fcb9 283e f18d 883d 7130 9d3c 7343 59bd
00000230: 1900 4cbe a8d7 00be 794d 583e b4df e7bc
00000240: b470 513e 938f 2d3d df4e 753e 9679 b0bd
00000250: 29b0 823d be45 dabd 17d7 04be 350a 823d
00000260: 73d2 463e 8001 c4bc 8139 07be 299a d83e
00000270: 72f7 d83e 410c e13e c83f b73e a177 b4ba
00000280: 3b01 033e ae07 8abe 119e 0fbe 70fd d33d
00000290: fcf9 213e e41e 193d 566a 55be 175f 76be
000002a0: 0b72 6a3e 0a5c 103e b711 8b3d dfb2 f3bd
000002b0: 65b1 26be 34b0 683d b07e cebc 7403 2abc
000002c0: 892d a13d 27f9 9d3d b395 5e3e 58d3 c23e
000002d0: f2ed 3f3e e784 373e dfbe 073e 9530 4c3e
000002e0: 6de6 23bd 7b0a 2e3d c9e7 c43e 1d0a 683e
000002f0: 23d4 513e a52a 2c3e 56d5 acbd 7779 a13c
00000300: 97d9 ec3d 7305 e43e 7a3d 543e 8926 bb3e
00000310: 77c6 073f 7cea 7b3d df22 643e ec04 b33e
00000320: 4b77 d83d 7228 303e 58ac cd3e 2162 863e
00000330: ff4d 6b3e 6e1b 4c3e 3825 143e f8aa d83d
00000340: 7878 863d aaaa d43e bb76 863e d94b 053e
00000350: 7742 723e 5486 893d 3693 7ebc d76c 9dbd
00000360: ab85 123e a429 6f3e 8a30 143e 5320 f23d
00000370: d649 283e 9cc0 843e 6f59 6c3e 5d24 0c3e
00000380: f0ce dfbc 04dd 4ebd 2482 56bd 67e5 433d
00000390: c723 873e 8089 813c 9fd4 b2bd 15bf b1bd
000003a0: 6e2c 1e3e b79e a13d fed2 48be 9032 323e
000003b0: cd3e 1a3e 373f a7be 6190 dabd 5284 df3e
000003c0: cc26 7bbe 99fd d6be 5dfc 19be b0b9 5fbb
000003d0: 7728 f9bd e9aa 7abd 44c8 c73d a44e 03be
000003e0: 2b4e 00bf 6f2b 42be 4c50 fabb c44a 363e
000003f0: dc15 4bbe 21d7 aa3d e631 e63d 0576 423e

rnn_layer.rnn_layer.weight_hh_l0_reverse f4 [256, 64]
0.15875596 -0.10664776 -0.2841612 -0.08008544 -0.13658987 -0.18870875 0.20203607 0.1621341
-0.08716169 -0.09977844 0.022912847 -0.0034342387 -0.15330935 0.18380126 0.08073682 0.35924643
-0.094325446 -0.10769367 0.09033661 -0.38984302 -0.1871071 0.01667676 -0.3854121 -0.19400206
0.20725904 -0.045424554 0.07062492 -0.28421834 0.22960556 -0.08107206 -0.05966807 0.11707404
0.035650693 -0.01703994 0.116112605 0.2741985 0.015217064 -0.04026237 -0.15850875 -0.2217006
-0.0674232 0.17040956 -0.0053974744 -0.29443675 -0.25948954 -0.23244189 0.24032816 0.036255334
-0.15558918 -0.1178707 0.07467847 -0.07353386 -0.088883504 -0.15261033 -0.0065970956 -0.25186107
0.056018703 -0.057195526 -0.36947343 -0.085931815 -0.014691786 -0.06957043 -0.056621775 0.08624098
0.08107086 -0.060917836 0.026571233 0.21399963 0.2742612 0.16048533 0.06143082 -0.035874877
-0.25449213 -0.007923737 0.09371839 0.15083216 0.10982853 0.22829875 -0.034637783 0.045479957
0.11190122 -0.09621883 0.04548637 -0.22274584 -0.22080714 -0.24383925 -0.1927661 0.0077562486
-0.015412563 -0.0888173 0.18008828 0.24364302 -0.026431028 0.029344924 -0.09897248 0.1835503
0.24806404 0.22446045 0.22725189 0.30363578 0.049375247 0.101574935 0.3449804 -0.20692249
-0.02780625 0.20736185 0.05448224 -0.027995082 -0.16892846 0.39592302 0.3426568 -0.061403025
-0.07445158 0.42181587 0.1461473 -0.20771705 0.45326605 0.19513156 0.3808217 -0.12569845
-0.069953226 -0.085281715 0.10285866 0.3205266 0.053412523 -0.13556136 0.080403656 -0.12132696
0.15739933 -0.016617024 -0.3336654 0.017792812 0.078977436 -0.056546975 -0.0013264525 0.23849441
-0.03650347 -0.057539333 0.046956513 0.06293065 0.14627178 0.021175703 -0.119780414 0.06507553
-0.15766485 -0.054016627 -0.020160384 -0.13496971 -0.10787581 0.07384682 -0.16825767 0.053366467
0.06317796 -0.075111106 -0.07703374 -0.18637383 0.11264563 0.053801592 -0.11084571 0.034129236
0.030909574 0.039310727 0.26237527 0.0042097117 0.19926697 -0.067459375 -0.10111224 -0.2110876
0.08999986 0.07303584 0.038506266 0.05798548 -0.019496765 -0.110174425 0.04134192 -0.04604664
0.053685892 -0.091792226 0.017615398 -0.02290702 0.008530331 -0.004445767 -0.1578615 -0.14045006
0.110725224 -0.14285067 0.0002949878 9.6630574e-05 0.07004285 0.12473825 0.09550759 0.016390134
0.16759634 -0.030069042 0.09841863 0.048018917 0.09886479 0.20127158 0.028462343 0.04630118
-0.15953217 -0.000105570805 -0.15699726 0.16855812 0.2975367 0.11829848 -0.10962183 0.14040856
0.15680425 0.10142235 -0.12937263 -0.065579295 -0.13639235 -0.15904005 -0.041561093 0.09971187
-0.0737495 0.029748362 0.23994313 0.027214639 0.042458493 0.113704674 -0.14337489 0.13120364
0.08551037 0.18496515 0.06366329 0.121153355 0.16538894 0.15517506 0.4572385 0.026201235
-0.076865494 0.15376551 0.0051491605 0.075970665 -0.08682801 0.37691504 0.23204055 -0.00251183
-0.07947588 0.29126653 0.12103992 0.013726002 0.365705 0.014992016 0.27679327 0.053281143
0.18826777 -0.07173447 -2.2231558e-05 0.22310832 0.12773031 -0.15960735 -0.07481482 -0.07608816
00000000: ec90 223e 246a dabd 947d 91be d603 a4bd
00000010: 37de 0bbe de3c 41be 8be2 4e3e 7b06 263e
00000020: d481 b2bd a458 ccbd b9b3 bb3c f710 61bb
00000030: 20fd 1cbe 6636 3c3e 5959 a53d 26ef b73e
00000040: b32d c1bd 808e dcbd 6702 b93d 8199 c7be
00000050: 0199 3fbe b39d 883c bc54 c5be 7aa8 46be
00000060: b73b 543e 190f 3abd cca3 903d 1185 91be
00000070: b81d 6b3e 1c09 a6bd 8266 74bd 84c4 ef3d
00000080: 7606 123d 5897 8bbc 72cc ed3d bf63 8c3e
00000090: fe50 793c 28ea 24bd 1e50 22be 7b05 63be
000000a0: 2d15 8abd d87f 2e3e 4cdd b0bb 6ac0 96be
000000b0: d0db 84be 3f05 6ebe 9618 763e 7980 143d
000000c0: c552 1fbe 3266 f1bd 07f1 983d ec98 96bd
000000d0: 8e08 b6bd e245 1cbe 732c d8bb eff3 80be
000000e0: de73 653d db45 6abd 9f2b bdbe 05fd afbd
000000f0: d1b5 70bc f17a 8ebd 3cec 67bd 1c9f b03d
00000100: 7b08 a63d fb84 79bd eaab d93c b822 5b3e
00000110: f76b 8c3e 4456 243e e29e 7b3d 89f1 12bd
00000120: cb4c 82be 90d2 01bc 6def bf3d bf73 1a3e
00000130: c8ed e03d 26c7 693e 59e0 0dbd 3149 3a3d
00000140: 782c e53d 610e c5bd ea4f 3a3d 7c17 64be
00000150: 441b 62be ffb0 79be 7a64 45be 2128 fe3b
00000160: fa84 7cbc d8e5 b5bd 1069 383e 8e7d 793e
00000170: e285 d8bc c464 f03c 15b2 cabd 9cf4 3b3e
00000180: 8004 7e3e f6d8 653e b8b4 683e 2676 9b3e
00000190: b33d 4a3d 8506 d03d 45a1 b03e 7de3 53be
000001a0: efc9 e3bc aa56 543e c528 5f3d f155 e5bc
000001b0: 95fb 2cbe 6cb6 ca3e b670 af3e bd81 7bbd
000001c0: 127a 98bd 40f8 d73e a3a7 153e c7b3 54be
000001d0: 7d12 e83e 91d0 473e 10fb c23e 18b7 00be
000001e0: a343 8fbd 2ea8 aebd 90a7 d23d 101c a43e
000001f0: 17c7 5a3d 99d0 0abe acaa a43d 457a f8bd
00000200: 4a2d 213e 6d20 88bc 31d6 aabe 3bc2 913c
00000210: ecbe a13d cd9d 67bd 5cdc adba e137 743e
00000220: aa84 15bd 5dae 6bbd 7955 403d c9e1 803d
00000230: 45c8 153e ab78 ad3c 6f4f f5bd 5246 853d
00000240: e572 21be 8a40 5dbd 6427 a5bc 8035 0abe
00000250: feed dcbd 003d 973d bd4b 2cbe cc96 5a3d
00000260: 7263 813d dad3 99bd dec3 9dbd c8d8 3ebe
00000270: c1b2 e63d 0f5f 5c3d 1303 e3bd 19cb 0b3d
00000280: 1336 fd3c 4904 213d 0d56 863e 9ff1 893b
00000290: a40c 4c3e 2428 8abd ef13 cfbd 5927 58be
000002a0: d951 b83d d193 953d bfb8 1d3d 2f82 6d3d
000002b0: aeb7 9fbc 21a3 e1bd 2556 293d 679b 3cbd
000002c0: bde5 5b3d 90fd bbbd 2b4e 903c 81a7 bbbc
000002d0: cdc2 0b3c ccad 91bb 72a6 21be 24d2 0fbe
000002e0: e8c3 e23d 7247 12be 98a8 9a39 25a6 ca38
000002f0: a072 8f3d c576 ff3d 7c99 c33d 9a44 863c
00000300: 609e 2b3e 5a53 f6bc b58f c93d 7caf 443d
00000310: 9f79 ca3d 231a 4e3e dc29 e93c 4ea6 3d3d
00000320: 675c 23be e565 ddb8 e4c3 20be 809a 2c3e
00000330: bb56 983e 7946 f23d 6981 e0bd 43c7 0f3e
00000340: 4b91 203e 85b6 cf3d 427a 04be 704e 86bd
00000350: 70aa 0bbe 65db 22be f73b 2abd bd35 cc3d
00000360: fa09 97bd d6b2 f33c a7b3 753e 3cf1 de3c
00000370: f5e8 2d3d ffdd e83d ded0 12be 3f5a 063e
00000380: 1020 af3d 8167 3d3e e661 823d 401f f83d
00000390: b85b 293e 36e6 1e3e 2a1b ea3e f9a3 d63c
000003a0: a86b 9dbd b574 1d3e 4aba a83b 8296 9b3d
000003b0: e2d2 b1bd 02fb c03e 0a9c 6d3e 849d 24bb
000003c0: 40c4 a2bd e320 953e c7e3 f73d 06e3 603c
000003d0: b03d bb3e 13a1 753c d9b7 8d3e 543d 5a3d
000003e0: 44c9 403e 86e9 92bd e87d bab7 8276 643e
000003f0: bccb 023e 1c70 23be 8338 99bd 1cd4 9bbd

rnn_layer.rnn_layer.bias_ih_l0_reverse f4 [256]
-0.1267931 0.02103766 0.12691543 0.030985374 0.11017009 -0.024790235 0.07271832 -0.002825838
0.34761336 0.2649303 0.033570517 0.0012304386 0.15211807 0.08943731 0.26890686 0.005719628
0.18545112 0.000531003 -0.04980435 0.18591386 0.39078787 0.072324686 0.0036619485 0.03015613
0.031288017 0.2688164 0.0067589195 0.0857635 -0.08034652 0.09954666 0.12009161 -0.018267002
-0.014916086 -0.1610816 -0.012256852 0.33131307 0.006569866 0.18341875 0.06647337 0.43671146
0.131788 -0.099295184 0.122866474 0.102839895 0.16764557 0.012135808 -0.07995929 0.27552244
0.057112202 -0.060857855 0.02214489 0.08668175 -0.08607505 -0.04975945 -0.02536557 -0.07232058
-0.049106594 0.4261541 0.076984406 0.014610011 -0.103073105 0.069964215 -0.019621588 0.13330223
0.043977372 -0.05755341 0.08214764 0.048491564 -0.004651041 0.14465441 0.14020248 0.11841132
-0.028956609 0.012420938 0.04490007 -0.029245932 -0.08274937 0.07619003 -0.092026874 -0.017929217
0.034687784 0.098863326 0.112314306 0.24211028 -0.086573385 -0.093978524 0.102904595 0.017915864
0.20589428 0.024804542 -0.00026831776 0.14529765 -0.011287875 0.036879968 -0.00063675636 -0.12432895
-0.012879053 0.010933662 0.2702125 -0.08702276 -0.10323233 -0.00972159 -0.025682889 0.059774917
-0.020748524 0.09993931 0.036541056 0.12700337 0.025004193 0.012835278 -0.13261697 -0.047540482
-0.020393876 -0.06628275 -0.00078771857 0.00020194417 -0.14846724 -0.006635756 0.010392294 0.064601466
0.062491525 -0.0036558944 -0.1089858 -0.102106065 -0.014680691 0.12124041 0.17308992 0.29334325
0.10780528 0.018581204 -0.023126138 0.12289445 -0.077578835 0.043050423 0.06285109 -0.21320097
-0.12938234 0.051722616 -0.029050693 -0.048918735 -0.031911094 -0.06174291 -0.000933813 0.06455852
0.05652854 0.08472879 0.14363408 0.007820665 -0.09545573 -0.025170421 -0.09855422 0.09681057
0.024498902 -0.090561435 -0.0031018527 -0.08956101 -0.051015753 0.15680966 -0.032473598 0.033469737
0.09849711 0.10245751 -0.11582853 0.071418196 0.07064399 0.06469619 0.12624267 -0.18746212
-0.12779331 0.03701048 0.05000298 0.052515835 -0.13073072 -0.020068886 -0.035583265 -0.061481263
0.090268195 0.044902217 -0.07305909 -0.03102052 0.117297076 -0.036070563 0.058416005 -0.06192336
0.06376635 -0.13522848 -0.04051715 0.052647058 -0.026536502 -0.037205637 0.11816322 -0.031044532
0.19266829 0.08715827 0.055406667 -0.1925087 0.25071508 0.2922678 0.31266508 0.052202106
0.35926318 0.35866317 0.09098489 0.043345965 0.020897305 0.19972475 0.15049645 0.095785245
-0.0102769295 0.2174354 -0.10845818 0.08346369 0.57498574 -0.04163816 0.03327072 0.12029391
0.1255538 0.50964564 0.07827693 0.15888287 0.05657043 0.24183357 0.10793271 0.22506486
0.10200649 0.022940574 -0.010764917 0.25817183 0.12628327 -0.025817428 0.06689855 0.28721464
0.23310484 0.056996312 -0.0131573435 0.22148728 0.22793111 -0.1294793 0.11221006 0.16589001
0.120919876 -0.10459676 0.20337382 0.15168567 -0.08419882 0.14642794 0.022331558 0.17011228
0.11095086 0.4751915 0.12046516 -0.1194508 0.1640481 0.06804418 -0.15430714 0.0020179946
00000000: 0dd6 01be 2c57 ac3c 1ef6 013e 0ad5 fd3c
00000010: dba0 e13d e414 cbbc 58ed 943d b231 39bb
00000020: 61fa b13e f2a4 873e 3d81 093d ab46 a13a
00000030: d7c4 1b3e e92a b73d 29ae 893e b86b bb3b
00000040: e6e6 3d3e 0233 0b3a a5ff 4bbd 3460 3e3e
00000050: 5915 c83e f71e 943d 4dfd 6f3b fd09 f73c
00000060: dd27 003d 4ea2 893e ed79 dd3b c6a4 af3d
00000070: b78c a4bd 1fdf cb3d 97f2 f53d aea4 95bc
00000080: 9962 74bc 93f2 24be f7d0 48bc dea1 a93e
00000090: 0848 d73b 20d2 3b3e 3123 883d a598 df3e
000000a0: 6ff3 063e 465b cbbd 6ba1 fb3d b99d d23d
000000b0: 48ab 2b3e 45d5 463c b2c1 a3bd 4711 8d3e
000000c0: 7cee 693d 1646 79bd 3369 b53c 3486 b13d
000000d0: 1e48 b0bd 91d0 4bbd 75cb cfbc d01c 94bd
000000e0: ff23 49bd df30 da3e 00aa 9d3d d45e 6f3c
000000f0: fe17 d3bd 6649 8f3d 74bd a0bc 6180 083e
00000100: 9e21 343d 20bd 6bbd 063d a83d 179f 463d
00000110: c267 98bb 4920 143e 3d91 0f3e a281 f23d
00000120: 6936 edbc 3181 4b3c 23e9 373d 2a95 efbc
00000130: 8078 a9bd 8509 9c3d 9678 bcbd 4be0 92bc
00000140: c714 0e3d db78 ca3d 0b05 e63d c2eb 773e
00000150: 634d b1bd d077 c0bd a5bf d23d 4ac4 923c
00000160: f3d5 523e e532 cb3c 00ad 8cb9 e8c8 143e
00000170: c7f0 38bc 730f 173d ffeb 26ba 2da0 febd
00000180: aa02 53bc 1a23 333c 4b59 8a3e fd38 b2bd
00000190: 796b d3bd 4e47 1fbc ec64 d2bc 8bd6 743d
000001a0: cff8 a9bc fbac cc3d 13ac 153d 2c0d 023e
000001b0: 98d5 cc3c 0f4b 523c becc 07be cfb9 42bd
000001c0: 0f11 a7bc 40bf 87bd e67e 4eba fac0 5339
000001d0: cc07 18be c270 d9bb 7144 2a3c c64d 843d
000001e0: 1df7 7f3d bb97 6fbb f233 dfbd fc1c d1bd
000001f0: 4887 70bc e44c f83d 7c3e 313e 1631 963e
00000200: 04c9 dc3d 9c37 983c 0773 bdbc 16b0 fb3d
00000210: a7e1 9ebd a455 303d 13b8 803d 5b51 5abe
00000220: ce7c 04be 18db 533d b8fb edbc 035f 48bd
00000230: 35b5 02bd 22e6 7cbd 21cb 74ba 4237 843d
00000240: 788a 673d 4a86 ad3d d014 133e 3f22 003c
00000250: 4b7e c3bd 3332 cebc cbd6 c9bd 9f44 c63d
00000260: ecb1 c83c 4678 b9bd 7448 4bbb c36b b7bd
00000270: e5f5 50bd b692 203e 0903 05bd 9017 093d
00000280: dab8 c93d 3ed5 d13d 8237 edbd b443 923d
00000290: ccad 903d 707f 843d c245 013e 12f6 3fbe
000002a0: 40dc 02be 4d98 173d edcf 4c3d d81a 573d
000002b0: 46de 05be 8167 a4bc c2bf 11bd c7d3 7bbd
000002c0: 88de b83d 63eb 373d 01a0 95bd bf1e febc
000002d0: 7339 f03d babe 13bd 9f45 6f3d 59a3 7dbd
000002e0: ef97 823d 5679 0abe 50f5 25bd 71a4 573d
000002f0: 1463 d9bc f064 18bd 8fff f13d 1a51 febc
00000300: d64a 453e 0980 b23d 1af2 623d 0021 45be
00000310: ba5d 803e 20a4 953e a315 a03e e0d1 553d
00000320: 58f1 b73e b3a2 b73e 4956 ba3d 8a8b 313d
00000330: d330 ab3c a584 4c3e be1b 1a3e 0e2b c43d
00000340: 9160 28bc 63a7 5e3e 531f debd 03ef aa3d
00000350: 4432 133f c68c 2abd e146 083d a75c f63d
00000360: 2d91 003e 2378 023f a84f a03d 31b2 223e
00000370: 65b6 673d 38a3 773e d30b dd3d 6777 663e
00000380: c7e8 d03d dfed bb3c 565f 30bc 192f 843e
00000390: 6750 013e 127f d3bc 1b02 893d cc0d 933e
000003a0: 09b3 6e3e f774 693d e691 57bc 90cd 623e
000003b0: c666 693e 3996 04be 63ce e53d 12df 293e
000003c0: d7a4 f73d d336 d6bd 3a41 503e 7d53 1b3e
000003d0: 6e70 acbd 35f1 153e acf0 b63c ea31 2e3e
000003e0: 343a e33d 4d4c f33e 70b6 f63d 9fa2 f4bd
000003f0: 3afc 273e bf5a 8b3d b102 1ebe 5540 043b

rnn_layer.rnn_layer.bias_hh_l0_reverse f4 [256]
-0.08785451 -0.017861726 0.11033064 -0.00030287818 0.0857158 0.014032012 -0.02687687 -0.0059953067
0.4532023 0.22514704 0.057188787 0.004087578 0.040740464 0.08044001 0.18363306 0.10485569
0.08784198 -0.08699897 -0.0100794425 0.14101376 0.36762214 0.16237457 0.06886604 0.047661282
-0.03421837 0.27762157 -0.12558366 0.05683405 -0.12594907 0.22519791 -0.007079714 0.06591152
-0.043141693 0.0040466106 0.09287948 0.29107365 0.11676092 0.03209113 0.02423531 0.45292145
0.11565346 -0.05614178 0.20474347 0.11311194 0.26591453 -0.121089295 -0.11002755 0.33335727
0.023017168 -0.10493664 -0.028644172 0.09685879 0.01584167 -0.07830378 -0.040021043 0.010086643
0.04708589 0.5278709 0.0025323115 0.0054428848 -0.019423792 0.1564138 0.10796361 0.14347653
0.03698613 -0.01520289 -0.05466194 -0.05592229 0.082398646 0.09989939 -0.034843 0.1505533
-0.10014284 -0.10501115 0.06687731 -0.033710644 -0.053527255 0.071445085 -0.029183192 -0.06285674
-0.07364506 0.03724907 0.133749 0.16700298 -0.17084812 -0.096015655 0.03016595 -0.05977059
0.19497463 0.104487866 -0.006534839 0.10308069 -0.041540463 0.07870772 0.019470908 -0.072688796
0.037684597 -0.0809208 0.17022105 -0.05822236 0.0023409156 -0.11131872 0.04772812 -0.045849144
-0.056234337 0.110310376 0.10989296 0.16247487 -0.0045315404 -0.10444109 -0.1335748 -0.0045619383
-0.010970819 -0.097443394 -0.06748151 0.03775187 -0.081673294 -0.012635297 -0.0339071 -0.07482432
-0.02345094 0.07940194 0.055014048 -0.024313962 -0.10703907 0.111531824 0.083812624 0.18537459
0.13923462 0.05493549 -0.062770225 0.059741292 0.055406276 -0.010012123 0.20879157 -0.11954181
-0.060362916 0.062603064 -0.042818367 -0.011177605 0.021144625 -0.04871319 0.020578783 0.036929842
-0.031073969 0.12294149 0.008735384 -0.12396707 -0.032842334 -0.053911638 -0.08082245 0.054100063
0.0014263646 -0.0248364 0.08950883 0.05619155 -0.0069033923 0.13808993 0.10576166 0.096243
0.19245113 0.05472656 0.022300795 -0.012021729 0.016126607 0.08354917 0.16720013 -0.10557262
-0.01640867 -0.0040819603 0.07647027 -0.044428617 -0.04741021 -0.03582478 0.014803522 -0.00097313477
0.06627032 0.015491987 -0.100440055 -0.034059502 0.04491947 0.03976533 0.016900435 -0.09118765
0.017623616 -0.01471377 -0.03861305 0.13502029 -0.001038859 -0.06599924 0.11333451 -0.009408312
0.03141737 0.024518546 0.19239166 -0.043357335 0.24083276 0.26780346 0.30377385 0.010410381
0.25288978 0.28413224 0.010459234 0.12770115 0.045915887 0.28701615 0.3160621 0.040199496
0.02239413 0.222178 0.0076037734 0.08550275 0.40174514 0.074289925 0.043185666 0.101981595
0.18907994 0.40876296 0.091859005 0.24057159 0.17747457 0.34170142 0.13007769 0.23269235
0.20201412 0.077429436 -0.029305095 0.13462456 0.027953573 -0.04705857 0.15796997 0.26454225
0.11185029 0.031830113 -0.054347195 0.075164124 0.34292936 -0.03150308 0.09262761 0.19369394
-0.006362712 -0.10551297 0.26522255 0.095107816 0.013089446 0.21874149 0.083754845 0.12219484
0.109901235 0.4489494 0.1635887 -0.07835873 0.2159283 0.028186932 -0.10970527 0.10187599
00000000: 11ed b3bd c152 92bc 08f5 e13d 9fcb 9eb9
00000010: c48b af3d 86e6 653c e22c dcbc 4774 c4bb
00000020: 220a e83e f28c 663e ca3e 6a3d 17f1 853b
00000030: 79df 263d bbbd a43d 4e0a 3c3e 94be d63d
00000040: 7fe6 b33d 842c b2bd 3f24 25bc e965 103e
00000050: f838 bc3e 8545 263e a309 8d3d 7a38 433d
00000060: 9028 0cbd 6a24 8e3e 0199 00be d2ca 683d
00000070: cbf8 00be 489a 663e f2fc e7bb 9efc 863d
00000080: 58b5 30bd 6e99 843b 9937 be3d 9b07 953e
00000090: 5920 ef3d fd71 033d 2189 c63c 52e5 e73e
000000a0: b9db ec3d ecf4 65bd 46a8 513e 3ca7 e73d
000000b0: f325 883e aafd f7bd 2056 e1bd cead aa3e
000000c0: 808e bc3c 05e9 d6bd 2fa7 eabc e75d c63d
000000d0: 64c6 813c bb5d a0bd 1bed 23bd 7242 253c
000000e0: 22dd 403d 8c22 073f 23f5 253b 3a5a b23b
000000f0: a51e 9fbc f02a 203e 061c dd3d 83eb 123e
00000100: c57e 173d 8b15 79bc 33e5 5fbd c50e 65bd
00000110: 9fc0 a83d 0d98 cc3d 89b7 0ebd a52a 1a3e
00000120: b017 cdbd 1610 d7bd f9f6 883d 2c14 0abd
00000130: 653f 5bbd cd51 923d 9711 efbc 09bb 80bd
00000140: 39d3 96bd 7b92 183d 7ff5 083e d402 2b3e
00000150: cff2 2ebe dba3 c4bd 951e f73c 02d2 74bd
00000160: 6ea7 473e bcfd d53d 3422 d6bb f81b d33d
00000170: 5526 2abd 8331 a13d 7481 9f3c dddd 94bd
00000180: 2a5b 1a3d ceb9 a5bd 6d4e 2e3e 927a 6ebd
00000190: 0c6a 193b 12fb e3bd 907e 433d 50cc 3bbd
000001a0: fa55 66bd 68ea e13d 8f0f e13d d05f 263e
000001b0: 517d 94bb 36e5 d5bd d5c7 08be 507c 95bb
000001c0: f3be 33bc 6790 c7bd bf33 8abd b4a1 1a3d
000001d0: 5444 a7bd 4704 4fbc 2ce2 0abd 7e3d 99bd
000001e0: 301c c0bc 7c9d a23d 6956 613d 132e c7bc
000001f0: 4d37 dbbd cc6a e43d f4a5 ab3d d6d2 3d3e
00000200: 8593 0e3e 0904 613d ad8d 80bd 49b3 743d
00000210: b1f1 623d e309 24bc 75cd 553e 56d2 f4bd
00000220: 1b3f 77bd 0936 803d 5062 2fbd 4622 37bc
00000230: 7e37 ad3c 7b87 47bd d694 a83c bf43 173d
00000240: d68e febc bfc8 fb3d db1e 0f3c 72e2 fdbd
00000250: af85 06bd 73d2 5cbd 3e86 a5bd 0798 5d3d
00000260: dbf4 ba3a b575 cbbc 6850 b73d 1c29 663d
00000270: da35 e2bb 7267 0d3e 9299 d83d 0d1b c53d
00000280: e911 453e f528 603d 28b0 b63c c9f6 44bc
00000290: f21b 843c d41b ab3d 8336 2b3e 7536 d8bd
000002a0: 7a6b 86bc f7c1 85bb 729c 9c3d c8fa 35bd
000002b0: 3531 42bd 01bd 12bd 798a 723c f819 7fba
000002c0: bcb8 873d 1ad2 7d3c 84b3 cdbd fa81 0bbd
000002d0: 7afd 373d f8e0 223d c872 8a3c 97c0 babd
000002e0: 675f 903c 0612 71bc b828 1ebd c242 0a3e
000002f0: 532a 88ba 9c2a 87bd ec1b e83d 5225 1abc
00000300: 80af 003d 1edb c83c 5202 453e 7697 31bd
00000310: dd9c 763e 891d 893e 3f88 9b3e 4d90 2a3c
00000320: c57a 813e c879 913e 355d 2b3c 17c4 023e
00000330: 4c12 3c3d c8f3 923e e4d2 a13e 3aa8 243d
00000340: e573 b73c a182 633e 1329 f93b 111c af3d
00000350: 8ab1 cd3e 5125 983d 74e3 303d badb d03d
00000360: 2c9e 413e 6149 d13e 9320 bc3d 6658 763e
00000370: e5bb 353e 7df3 ae3e 1633 053e e746 6e3e
00000380: cadc 4e3e 5393 9e3d 3d11 f0bc 05db 093e
00000390: e4fe e43c 7dc0 40bd e1c2 213e 1572 873e
000003a0: c411 e53d 4b60 023d 2a9b 5ebd a6ef 993d
000003b0: 7094 af3e 6009 01bd 8bb3 bd3d b457 463e
000003c0: 4c7e d0bb 2f17 d8bd 40cb 873e e3c7 c23d
000003d0: 1e75 563c c5fd 5f3e a987 ab3d 4a41 fa3d
000003e0: e613 e13d b2dc e53e cc83 273e 8b7a a0bd
000003f0: 4f1c 5d3e 48e8 e63c 28ad e0bd 5ca4 d03d
