models/pre_train/cnn+lstm+attn.pth (torch, 567565 bytes, 43 tensors)

rnn_layer.rnn_layer.weight_ih_l0 f4 [256, 46]
0	0xbd87af0c	-0.066251844
1	0x3b1d46ed	0.0023998574
2	0x3d401d15	0.046902735
3	0x3d62cbd2	0.05537016
4	0xbe7769b2	-0.24161413
5	0x3e1ef3ce	0.15522692
6	0x3e2c69a9	0.16837181
7	0x3e9c7458	0.30557513
8	0x3dfaa07c	0.12237641
9	0xbc41afa3	-0.01182166
10	0x3e48e01c	0.19616741
11	0x3c6ce703	0.014459374
12	0x3e909e5f	0.28245828
13	0x3e4916f1	0.19637658
14	0xbd8701a1	-0.065921076
15	0xbe70a4c0	-0.23500347
16	0x3defd578	0.11710638
17	0x3e2b1da1	0.16710521
18	0x3e38a628	0.18032134
19	0x3db99eaa	0.09063466
20	0x3e1d73fe	0.15376279
21	0xbdfd84d2	-0.12378849
22	0x3e2ea172	0.17053774
23	0x3e44a9a7	0.19205342
24	0x3e0da96f	0.13834165
25	0x3d8051a0	0.06265569
26	0x3dc9c8de	0.098527655
27	0xbd77a708	-0.060462028
28	0x3d809a0f	0.06279384
29	0xbd2dd0da	-0.042435504
30	0x3e0d7f60	0.13818121
31	0x3c72c124	0.014816556
32	0x3e723a69	0.23655094
33	0x3e373270	0.17890334
34	0x3d5fb265	0.05461349
35	0x3e8310bc	0.25598705
36	0x3e86271f	0.26201722
37	0xbce20168	-0.027588561
38	0xbbbe4546	-0.005806598
39	0xbde2a446	-0.11066489
40	0x3b83bbba	0.0040201815
41	0x3dc36359	0.095404334
42	0x3d27bfbc	0.040954337
43	0xbc274e73	-0.010211575
44	0x3d9c629f	0.07635998
45	0xbd93f357	-0.07224148
46	0x3da336c7	0.07969432
47	0xbda6f8a9	-0.08152897
48	0x3eb53075	0.35388532
49	0x3e31758a	0.17329994
50	0x3e9965f9	0.2996061
51	0x3d1a65ea	0.03769485
52	0xbdbc7f7c	-0.09204003
53	0xbe51e419	-0.20497169
54	0x3dbf9482	0.093544975
55	0x3dc8cfba	0.09805246
56	0x3e193b56	0.14964041
57	0xbe0b045a	-0.13575879
58	0xbe1c0e99	-0.15239944
59	0xbcd860ab	-0.026413282
60	0xbdd99e41	-0.10625888
61	0xbe9f1cd4	-0.31076682
62	0xbdee4c8b	-0.11635693
63	0x3df1696a	0.11787684
64	0x3e59fc91	0.21287753
65	0x3d20cb65	0.039256472
66	0x3e1461f2	0.14490488
67	0xbbf43541	-0.0074526374
68	0xbd3a68f9	-0.045510266
69	0x3dbe1937	0.09282153
70	0x3e0059f1	0.1253431
71	0x3c78d9bd	0.015188632
72	0xbd9dbd4c	-0.07702121
73	0x3e46f7ad	0.19430418
74	0x3e6bbee6	0.2302204
75	0xbb9d76f3	-0.0048054396
76	0x3e05f39e	0.13081214
77	0xbcc537b4	-0.024074413
78	0x3cb846ec	0.022494756
79	0x3d9dbffc	0.07702634
80	0xbcb67107	-0.022270693
81	0xbd9eebaa	-0.07759793
82	0xbe2914cb	-0.16511838
83	0xbe846143	-0.25855455
84	0xbe525656	-0.20540747
85	0xbe304e6a	-0.17217413
86	0xbe109717	-0.14120136
87	0xbe8bc6f2	-0.2730022
88	0xbe33ce6f	-0.17559217
89	0x3e128550	0.14308667
90	0x3d0265f2	0.031835504
91	0x3e59db51	0.21275069
92	0xbdb4bb4a	-0.08824785
93	0xbd85bb09	-0.06529815
94	0x3da0adad	0.07845626
95	0xbe66a979	-0.22525586
96	0xbe7c9f3b	-0.24670117
97	0xbe163b40	-0.1467104
98	0x3e1fa3ac	0.1558978
99	0x3e3adf61	0.18249275
100	0x3e07d8c4	0.13266283
101	0xbeb8aee4	-0.3607093
102	0xbe9673f1	-0.2938533
103	0x3dd27a74	0.10277262
104	0x3e5cd6d3	0.21566324
105	0xbd2a8e05	-0.041639347
106	0x3d9e47ea	0.0772856
107	0x3cd11e8f	0.025527267
108	0xbe08db74	-0.13364965
109	0x3cb9591f	0.022625504
110	0xbcd2f39b	-0.025750926
111	0xbc9729ce	-0.018452551
112	0x3d9c2fd5	0.07626311
113	0xbe3b4ede	-0.18291804
114	0xbdf4823c	-0.11938903
115	0xbddd8b3c	-0.108175725
116	0x3dc00f7a	0.09377952
117	0xbd8b443e	-0.068001255
118	0xbdbc40a9	-0.091920204
119	0xbd126ab1	-0.03574628
120	0xbe04b0c6	-0.12958059
121	0xbd96d29d	-0.0736439
122	0xbec7d48e	-0.39029354
123	0xbe4b2948	-0.19839966
124	0xbe0844dd	-0.1330752
125	0x3d37368f	0.044729766
126	0x3c2ef7c9	0.010679194
127	0xbc7cc855	-0.015428622
128	0xbcfe5f49	-0.031051295
129	0xbe099ab0	-0.13437915
130	0xbe3c2885	-0.18374832
131	0xbdedc751	-0.11610282
132	0xbe2f42e2	-0.17115358
133	0xbe33dd5a	-0.17564908
134	0xbb9c6a61	-0.0047734235
135	0xbe207fa2	-0.15673688
136	0xbe1ef502	-0.1552315
137	0xbe277715	-0.1635402
138	0x3b76c023	0.0037651144
139	0xbd944ba0	-0.07240987
140	0xbe6eb9dd	-0.23313089
141	0xbe8e4372	-0.27785832
142	0xbe32ad28	-0.17448866
143	0xbe7af215	-0.2450641
144	0x3d787789	0.060660873
145	0x3e02228d	0.12708493
146	0xbe087b01	-0.13328172
147	0xbdeb005d	-0.11474679
148	0x3e20c9c5	0.15701969
149	0x3e82dca2	0.25558954
150	0x3d0a8395	0.033816893
151	0x3bef5c28	0.007304687
152	0xbcb7eb5f	-0.0224511
153	0xbdd74be2	-0.105125204
154	0x3d2454f9	0.0401201
155	0x3e31b9cb	0.1735603
156	0x3e00c232	0.1257408
157	0xbe4932a0	-0.19648218
158	0xbd5c7a25	-0.053827424
159	0x3dcf246f	0.10114371
160	0x3d6bb07c	0.057541355
161	0x3de7e3ff	0.11322784
162	0xbd2c693f	-0.042092558
163	0x3b8bc70b	0.004265671
164	0x3c6c40e1	0.014419765
165	0x3cf816cb	0.030284306
166	0x3e88808f	0.26660582
167	0x3d0b947b	0.03407715
168	0x3d03283a	0.032020785
169	0xbe2ab565	-0.16670759
170	0xbe0a5fcd	-0.13513108
171	0x3e283f07	0.16430293
172	0xbdc3999a	-0.095507815
173	0xbea29b4c	-0.31759107
174	0xbe019d80	-0.12657738
175	0xbcaecbd9	-0.021337437
176	0xbe0b76d5	-0.1361955
177	0xbcca2a62	-0.024678413
178	0xbe10a7cf	-0.14126514
179	0xbdafbae8	-0.085805714
180	0xbdcb2681	-0.099194534
181	0xbd266dbb	-0.04063199
182	0xbbc35d41	-0.0059620445
183	0xbdcee854	-0.10102907
184	0x3da02661	0.0781982
185	0xbd822ab3	-0.063558005
186	0xbd1c3db8	-0.038144797
187	0x3e760547	0.2402545
188	0x3ea3729e	0.31923383
189	0x3e5032d3	0.20331888
190	0xbd2a1850	-0.041527092
191	0x3d3bebb8	0.045879096
192	0xbe299aa1	-0.16562892
193	0xbddbfcc9	-0.10741574
194	0xbe89a20e	-0.2688145
195	0xbdf8e27e	-0.12152575
196	0xbc457bf4	-0.0120534785
197	0x3dbaea53	0.09126725
198	0xbd299fe6	-0.041412257
199	0xbe66a40c	-0.22523516
200	0xbdc6859c	-0.09693453
201	0xbe02af44	-0.12762171
202	0x3bd799ac	0.0065795984
203	0x3c8b5678	0.017009005
204	0xbc7c2e9a	-0.01539197
205	0xbd06c22b	-0.032900017
206	0xbdb2e9a2	-0.08735968
207	0xbd8f9fe4	-0.070129186
208	0x3e967a95	0.29390398
209	0x3df67185	0.12033371
210	0x3e3fcb17	0.18729816
211	0x3c82e89a	0.015980054
212	0xbdb8ec17	-0.090294056
213	0xbc714136	-0.01472502
214	0x3cfd396e	0.030911174
215	0x3db59647	0.08866554
216	0x3e1208ea	0.14261213
217	0x3e8e2352	0.27761322
218	0x3dd94a7d	0.10609911
219	0xbdfcaff0	-0.12338245
220	0x3e117921	0.14206363
221	0x3dc89400	0.09793854
222	0x3c886773	0.016650891
223	0x3de39daf	0.1111406
224	0xbe3731f5	-0.17890151
225	0xbdad98da	-0.0847642
226	0x3cc74e96	0.024329465
227	0xbdc896d7	-0.097943954
228	0x3cd1106b	0.025520524
229	0xbd9fce9a	-0.07803078
230	0x3daae45d	0.08344338
231	0x3d92d152	0.07168831
232	0x3d535321	0.05159295
233	0x3eb6ce8b	0.35704455
234	0xbb87eec3	-0.0041483357
235	0xbe54389d	-0.20724721
236	0x3dad2961	0.08455158
237	0x3e78956e	0.24275753
238	0x3e9c6fb4	0.30553973
239	0x3dedc1e2	0.11609246
240	0xbe7e76f1	-0.2485006
241	0xbdda3ed5	-0.106565155
242	0xbcdaf118	-0.02672629
243	0xbe55a03e	-0.20861909
244	0xbe58701b	-0.21136515
245	0xbc3362c3	-0.01094884
246	0x3c84149f	0.016123114
247	0xbd333813	-0.04375465
248	0x3d219304	0.039446846
249	0xbdf15ef5	-0.1178569
250	0xbe6e311a	-0.23260918
251	0xbec9b58a	-0.39396316
252	0xbe8600a0	-0.26172352
253	0xbd1689cd	-0.03675251
254	0x3de8513f	0.113436215
255	0xbe0e9fb9	-0.13928117

rnn_layer.rnn_layer.weight_hh_l0 f4 [256, 64]
0	0xbd971059	-0.07376165
1	0x3e0420ea	0.1290318
2	0xbbd90451	-0.006622829
3	0x3d512ac4	0.051066175
4	0x3e08a073	0.13342457
5	0x3c14ff74	0.009094108
6	0x3e32fc8c	0.17479151
7	0xbd056573	-0.032567453
8	0x3da46cd3	0.08028569
9	0xbc0d7225	-0.008633171
10	0x3d0988b9	0.033577655
11	0x3d15fd6d	0.03661864
12	0xbdcbb7fa	-0.099472
13	0xbe3a3a23	-0.1818624
14	0x3e05c8bb	0.13064854
15	0x3d1e3959	0.03862891
16	0xbe39d0ee	-0.18146107
17	0xbddc9113	-0.10769858
18	0x3df7e164	0.12103537
19	0xbd53e0d2	-0.051728077
20	0x3c6d6a5e	0.014490692
21	0x3e2f65d3	0.17128687
22	0x3d64a415	0.055820543
23	0x3bf9438a	0.0076069282
24	0xbdc63906	-0.09678845
25	0x3d2fa1d3	0.042878937
26	0xbd6a138f	-0.05714756
27	0x3c4db56f	0.012555464
28	0xbe288922	-0.16458562
29	0x3e1831a4	0.14862686
30	0x3d543feb	0.05181877
31	0xbb42b9f2	-0.0029712883
32	0x3e52e286	0.20594224
33	0xbe656837	-0.22403036
34	0x3e81b851	0.25335935
35	0x3dd03bea	0.10167678
36	0xbde304c6	-0.11084895
37	0x3e598011	0.2124026
38	0xbd2e8b4a	-0.042613305
39	0x3d5e176c	0.054221556
40	0xbe61297b	-0.2198848
41	0x3ba02021	0.0048866426
42	0xbd277bc3	-0.040889513
43	0xbc46179b	-0.012090589
44	0x3d8050a1	0.06265379
45	0xbda99e0a	-0.08282097
46	0xbd7dda9c	-0.06197606
47	0x3d5b4aac	0.05353801
48	0xba67d1a1	-0.0008843188
49	0x3e37e561	0.17958595
50	0xbe307fbe	-0.1723623
51	0xbc13c373	-0.009018767
52	0xbdb3eea3	-0.08785751
53	0xbdc50744	-0.096205264
54	0xbe42b3fb	-0.1901397
55	0x3cb4fd69	0.022093492
56	0xbe71ca4d	-0.23612328
57	0x3bdb7392	0.0066971267
58	0x3e489d8d	0.19591351
59	0xbe26cdba	-0.16289416
60	0x3e98c5af	0.2983832
61	0xbe80ddc3	-0.2516919
62	0x3e287091	0.1644919
63	0xbe896452	-0.2683435
64	0x3e4a9222	0.19782308
65	0xbd8a9f08	-0.06768614
66	0xbc9538d6	-0.018215578
67	0x3dc4ed82	0.096156135
68	0x3cc1dfe5	0.023666332
69	0xbd5453f5	-0.05183788
70	0x3cebe299	0.028794574
71	0x3e415a54	0.18882114
72	0xbe42f32b	-0.19038074
73	0xbdb8fe8d	-0.09032927
74	0x3e3badd7	0.18328033
75	0x3b1cd909	0.0023933074
76	0xbe6f12a1	-0.2334695
77	0xbeb1a1ea	-0.34693843
78	0xbcbcad54	-0.023031868
79	0x3ebd1a5c	0.36934173
80	0x3d034677	0.032049622
81	0x3daf3a41	0.08556033
82	0xbc3a2270	-0.01136075
83	0xbe83f110	-0.25769854
84	0x3d83ff80	0.06445217
85	0xbe0ebfbd	-0.1394033
86	0xbd322ccb	-0.04349975
87	0xbbba9a21	-0.005694643
88	0xbd3ebcbb	-0.046566706
89	0xbe2244cd	-0.15846558
90	0xbd490972	-0.049081273
91	0xbe93b30c	-0.2884754
92	0x3c89ced3	0.016822254
93	0x3e9cee8a	0.3065074
94	0xbddfc9fd	-0.10927198
95	0x3daa738f	0.08322822
96	0x3e948564	0.2900802
97	0xbe34a82b	-0.17642276
98	0x3d47be57	0.048765507
99	0x3e8466d4	0.25859702
100	0x3c2e5193	0.010639566
101	0xbdd9e5a8	-0.106395066
102	0x3e96ebba	0.2947672
103	0x3e1b8f11	0.15191294
104	0xbde3a0ac	-0.1111463
105	0xbe860183	-0.26173028
106	0xbd4fc048	-0.050720483
107	0xbceb5051	-0.028724821
108	0x3dcff037	0.10153239
109	0x3e4f159c	0.20223087
110	0xbd23eca3	-0.040020596
111	0xbd3d859f	-0.04627001
112	0xbe05eb2b	-0.1307799
113	0x3e151bd0	0.14561391
114	0xbe5dc5ac	-0.21657437
115	0xbdc841c6	-0.0977817
116	0x3e2eba17	0.17063175
117	0xbe02f852	-0.12790039
118	0x3d3ae84b	0.045631688
119	0xbd8394ff	-0.06424903
120	0xbcd4841d	-0.025941903
121	0xbd42ea96	-0.047587
122	0xbe13de5e	-0.14440295
123	0x3cd380af	0.025818197
124	0x3e1e3f8d	0.1545393
125	0xbe2fa14a	-0.1715137
126	0xbe04b8c0	-0.12961102
127	0xbe5b61ab	-0.21423976
128	0x3e03e9cf	0.1288216
129	0xbe3edf50	-0.18639874
130	0xbc592eec	-0.013255816
131	0x3eaf5324	0.3424312
132	0xbdcd9c66	-0.10039596
133	0x3e28d260	0.16486502
134	0xbdd49f4e	-0.103819475
135	0xbda06598	-0.078318775
136	0x3df65b0d	0.12029085
137	0xbb11e06d	-0.0022259012
138	0x3d427fd7	0.0474852
139	0x3e13332b	0.14374988
140	0xbdcf04f3	-0.10108366
141	0x3dc05d59	0.09392805
142	0xbc9333f0	-0.017969102
143	0x3e0a7adf	0.13523434
144	0xbe62c98b	-0.22147195
145	0xbc4b3f67	-0.012405253
146	0xbd95c644	-0.07313207
147	0xbca957c0	-0.020671725
148	0x3e07acc1	0.13249494
149	0x3d3dd840	0.04634881
150	0x3e559025	0.20855768
151	0xbc920137	-0.017822845
152	0xbe96f7e8	-0.29486012
153	0xbe33f0fb	-0.17572396
154	0xbd12895a	-0.03577552
155	0x3cbe3865	0.02322025
156	0x3dca819e	0.09888004
157	0xbe8d3c17	-0.27584907
158	0x3d98f542	0.07468654
159	0xbdd64b21	-0.104635485
160	0x3d8f12cc	0.06986007
161	0xbe24834c	-0.16065711
162	0x3e7c7f62	0.24657968
163	0x3cb9ac1d	0.022665078
164	0x3e6261b9	0.2210759
165	0xbe2c0eb4	-0.16802484
166	0x3e71c532	0.2361038
167	0xbc4e9e59	-0.012610995
168	0x3c500b27	0.012697971
169	0x3cd4d462	0.025980178
170	0xbdd88c48	-0.105736315
171	0xbd7beb12	-0.061503477
172	0x3eaec3c8	0.34133744
173	0x3d7a68c7	0.06113508
174	0x3e4e3730	0.2013824
175	0xbdbdec5e	-0.09273599
176	0xbe17d516	-0.1482738
177	0x3e0ab9c0	0.1354742
178	0xbd7d2733	-0.06180496
179	0x3e2c9eb6	0.16857418
180	0x3dbde61e	0.09272407
181	0xbe8c2fe0	-0.27380276
182	0x3e29e839	0.16592492
183	0x3a503466	0.0007942378
184	0x3e8d59e8	0.27607656
185	0xbd4771e4	-0.0486926
186	0xbd2ae634	-0.041723445
187	0xbe33ebff	-0.17570494
188	0xbea09f14	-0.31371367
189	0xbe32814c	-0.17432135
190	0x3e67b570	0.22627807
191	0xbdb39801	-0.08769227
192	0xbe296964	-0.1654411
193	0x3e0766bc	0.13222784
194	0x3e1e5426	0.15461788
195	0xbc8cd0d8	-0.017189428
196	0xbd3b8699	-0.04578266
197	0xbe8b98d3	-0.27265033
198	0x3db19e72	0.08672799
199	0x3e02971d	0.12752958
200	0xbe094d68	-0.13408434
201	0x3e56b536	0.20967564
202	0x3e20fa2d	0.15720434
203	0x3d8b11a5	0.06790475
204	0xbde987dd	-0.11402867
205	0xbe0e887e	-0.13919255
206	0x3e558418	0.20851171
207	0xbe63f854	-0.22262698
208	0x3e34a19b	0.17639773
209	0x3e5bc83a	0.21463099
210	0x3e5b9996	0.21445307
211	0x3e3a0052	0.18164185
212	0xbe9ca1d0	-0.30592203
213	0xbde19962	-0.110155836
214	0x3e0fe436	0.140519
215	0xbda39cac	-0.07988867
216	0x3e2892bc	0.16462225
217	0xbd544377	-0.051822152
218	0xbe49a899	-0.19693221
219	0x3d0c0e85	0.034193534
220	0xbdb6fd4d	-0.08935032
221	0xbcd5664a	-0.026049752
222	0x3d36e76e	0.044654302
223	0xbd310f9d	-0.04322778
224	0xbdc5af77	-0.09652608
225	0xbe6546bd	-0.22390266
226	0x3bef976b	0.0073117516
227	0xbe56425e	-0.20923755
228	0xbdd79847	-0.105270915
229	0x3d45b396	0.04826697
230	0xbeaebbe1	-0.34127715
231	0xbe9ca3f8	-0.30593848
232	0x3e2f6092	0.17126682
233	0xbd8647df	-0.06556677
234	0x3e0b62b7	0.13611875
235	0xbd87eb26	-0.06636648
236	0xbe7e8849	-0.24856676
237	0xbcfda78e	-0.030963685
238	0xbd70e325	-0.058810372
239	0x3ece46a2	0.40288264
240	0x3ecd3330	0.40078115
241	0x3e926f6f	0.28600642
242	0x3dee6995	0.11641232
243	0xbde61b97	-0.11235731
244	0xbd75dd4d	-0.060025502
245	0x3eac862c	0.33696115
246	0xbd9983d2	-0.07495846
247	0x3d206b2a	0.0391647
248	0xbe263fac	-0.16235226
249	0x3d5efd80	0.054440975
250	0x3e9393ed	0.28823796
251	0x3e43428a	0.19068351
252	0x3ea1425f	0.3149595
253	0xbe1d6896	-0.15371928
254	0x3dbf26be	0.09333561
255	0xbe036919	-0.1283306

rnn_layer.rnn_layer.bias_ih_l0 f4 [256]
0	0x3e541fee	0.20715305
1	0xbae365dd	-0.0017349083
2	0xbd6ae80d	-0.057350207
3	0x3d0f4e1f	0.03498661
4	0xba435ed1	-0.00074527884
5	0xbe04b361	-0.12959053
6	0xbe19f015	-0.1503299
7	0xbd48fde7	-0.049070265
8	0x3e1e4e31	0.15459515
9	0xbd48bcdc	-0.049008235
10	0xbced9533	-0.029001808
11	0xbe39b35d	-0.18134828
12	0x3cceb472	0.025232527
13	0xbaa3c3fe	-0.0012494323
14	0x3d106c48	0.035259515
15	0x3cb59d8b	0.022169849
16	0xbd5f2210	-0.054475844
17	0x3c99d693	0.018779075
18	0x3e150546	0.14552793
19	0xbdce03ab	-0.10059293
20	0x3cbc73d5	0.023004452
21	0x3d311a3f	0.04323792
22	0xbe29a136	-0.16565403
23	0x3aefb535	0.0018288257
24	0x3d1524c9	0.036412034
25	0xbdd0f9ca	-0.102038935
26	0x3deb80be	0.11499165
27	0xbdbda2fe	-0.09259604
28	0x3d231c92	0.03982217
29	0x3d94047d	0.072274186
30	0xbdd68833	-0.10475197
31	0x3dbe5319	0.09293193
32	0x3d9a38e3	0.075303815
33	0x3e22b731	0.15890194
34	0x3d68dd78	0.056851834
35	0xbca133ac	-0.01967796
36	0x3c8f93bc	0.0175265
37	0x3d1dbcb5	0.038510043
38	0x3d937f2a	0.07201989
39	0xbe420804	-0.1894837
40	0x3d3331bc	0.043748602
41	0x3d01d29f	0.031695005
42	0xbd7c9b42	-0.061671503
43	0x3e2f2663	0.17104487
44	0xbdd1c276	-0.102421686
45	0x3df077fe	0.11741637
46	0xbe604d69	-0.2190453
47	0x3dda0c9c	0.10646936
48	0x3d8e42a2	0.06946303
49	0x3c681c3f	0.014166891
50	0x3c9c238a	0.019059915
51	0xbe6519f6	-0.22373185
52	0xbdfceb4c	-0.12349567
53	0x3c18fe6d	0.009338004
54	0xbdf15a53	-0.11784806
55	0xbce4b183	-0.027916675
56	0xbe31a836	-0.17349324
57	0x3d778c96	0.060436808
58	0x3db15dd4	0.086604744
59	0xbc49f697	-0.012326858
60	0x3ca9bee7	0.020720912
61	0x3d8599cd	0.06523476
62	0xbd7da6e8	-0.061926752
63	0xbc899f47	-0.016799582
64	0xbc42cfc1	-0.011890353
65	0x3d904d9c	0.07046053
66	0xbdc83493	-0.09775653
67	0x3d70e1af	0.05880898
68	0x3d8c3cc1	0.068475254
69	0xbc67a4c8	-0.014138408
70	0xbdf8e98e	-0.12153922
71	0xbb801251	-0.0039084335
72	0x3e41bb15	0.18919022
73	0x3c9f9f49	0.019485133
74	0x3dd2d810	0.10295117
75	0xbe0fbaa9	-0.14036049
76	0xbcc86175	-0.024460534
77	0x3d92b8b4	0.071641356
78	0xbccfd781	-0.025371315
79	0x3df20f8c	0.118193716
80	0x3e88189d	0.26581278
81	0x3d107243	0.03526522
82	0xbd19e852	-0.037575074
83	0xbe3d7d9e	-0.1850495
84	0x3cc8a7d8	0.024494097
85	0xb9cb0051	-0.00038719413
86	0x3dbe3642	0.092876926
87	0x3b9dbd12	0.0048137987
88	0x3cdb9090	0.026802331
89	0x3e1109dc	0.14163917
90	0x3dd01f76	0.10162251
91	0x3e208697	0.15676342
92	0x3cbbd07e	0.022926565
93	0xbd6c24e2	-0.05765236
94	0x3e392d69	0.18083729
95	0x3db32a53	0.08748307
96	0xbcec3ae6	-0.028836679
97	0xbd9db966	-0.077013776
98	0x3e239d55	0.15977986
99	0x3d7ae7a5	0.06125607
100	0xbd3df2f3	-0.046374273
101	0x3d17f491	0.03709847
102	0xbd686831	-0.05673999
103	0x3df12ef7	0.11776536
104	0x3cd00e02	0.025397304
105	0x3e4bb1d0	0.19892049
106	0xbd891889	-0.06694133
107	0x3ddd1d05	0.10796551
108	0xbb4ff2ba	-0.003173037
109	0xbc3a74d7	-0.011380396
110	0x3e37a27f	0.17933081
111	0x3dd24000	0.10266113
112	0xbd75285b	-0.05985294
113	0xbd5f502a	-0.05451981
114	0xbd69eef9	-0.057112668
115	0xbd9c4c56	-0.076317474
116	0xbd84c2e1	-0.06482483
117	0xbacac81f	-0.0015471018
118	0xbe2ae4c3	-0.16688828
119	0xbca7ba55	-0.020474592
120	0x3dbf049b	0.0932705
121	0x3c7f98d9	0.015600407
122	0x3cbb6038	0.02287303
123	0x3e4098f9	0.18808354
124	0x3c966723	0.018359726
125	0xbd8574e0	-0.06516433
126	0xbd2cdffd	-0.0422058
127	0xbd346004	-0.04403688
128	0xbd419fd3	-0.04727156
129	0xbd829bea	-0.063773945
130	0x3c1b48c5	0.009477799
131	0x3d4d2fa8	0.050094277
132	0x3cfc79bb	0.030819764
133	0x3db5440c	0.088508695
134	0x3c7874cd	0.015164566
135	0x3cdd3f2a	0.027007658
136	0xbc06f267	-0.008236504
137	0xbd0b6c3b	-0.034038763
138	0x3c32a146	0.010902708
139	0xbc86eb3a	-0.016469587
140	0xbcd2844d	-0.025697852
141	0xbd836918	-0.064165294
142	0x3d49c542	0.049260385
143	0x3cd57f3e	0.02606165
144	0xbe36952b	-0.1783034
145	0xbd636456	-0.05551561
146	0xbda354e5	-0.07975177
147	0x3d8b07ae	0.06788574
148	0x3dd84230	0.10559499
149	0x3db33b76	0.08751576
150	0x3d37e4b5	0.044895846
151	0xbc9f0dab	-0.019415697
152	0x3aa8b704	0.0012871926
153	0xbcab82a8	-0.020936325
154	0x3df79a4b	0.12089976
155	0x3d4fc644	0.05072619
156	0xbda43084	-0.08017066
157	0xbd6abcfd	-0.05730914
158	0xbddac8a8	-0.106828034
159	0x3d71a8a8	0.058998734
160	0xbdc1f2bb	-0.09470125
161	0xbd905dbd	-0.07049129
162	0x3d98e018	0.074646175
163	0x3dbf0a7f	0.09328174
164	0xbd50d92b	-0.050988358
165	0x3c9c1a0d	0.01905539
166	0xbda1a4ae	-0.07892738
167	0xbda771d0	-0.08176005
168	0xbe0800db	-0.13281576
169	0x3df47d7d	0.119379975
170	0x3c8333dc	0.01601594
171	0x3d71c335	0.059024055
172	0xbd8a031f	-0.067388766
173	0xbd9817ac	-0.0742639
174	0xbe012e0f	-0.12615226
175	0xbd7d1386	-0.061786197
176	0xbc86a005	-0.016433725
177	0xbc69ae38	-0.014262728
178	0xbc2d5814	-0.0105800815
179	0x3e0a07a0	0.13479471
180	0xbdd36864	-0.10322645
181	0x3dab9153	0.08377328
182	0xbd49d5e3	-0.049276244
183	0xbe002fd0	-0.12518239
184	0xbb72d77b	-0.0037054706
185	0xbd3d263e	-0.04617905
186	0xbddf01d4	-0.108890206
187	0xbc4118cf	-0.0117857
188	0xbc95c8fe	-0.018284317
189	0xbc134f8f	-0.008991136
190	0xbbab4629	-0.0052268696
191	0xbdbff52e	-0.09372936
192	0xbd8f7b5b	-0.0700595
193	0xbdb765de	-0.089549765
194	0x3d4a2b9d	0.049358
195	0x3d05e21e	0.032686345
196	0xbd13e4fe	-0.036107056
197	0xbe1c509d	-0.15265127
198	0x3d0cc5a5	0.034368176
199	0x3e20be53	0.15697603
200	0x3e6a6233	0.22889023
201	0xbd92e5b7	-0.07172721
202	0x3daf9968	0.08574182
203	0xbd97784d	-0.073959924
204	0x3d219eb1	0.03945798
205	0xbca26744	-0.019824632
206	0x3dc32766	0.09528999
207	0x3e0b27b4	0.13589364
208	0xbda85fbe	-0.082213864
209	0x3e926423	0.28592023
210	0x3db6d240	0.08926821
211	0xbd07b9b5	-0.03313609
212	0x3cbcc861	0.023044767
213	0x3da38d3a	0.07985921
214	0xbcf76f27	-0.030204369
215	0x3cfd0df2	0.030890439
216	0x3d9edd4b	0.07757052
217	0x3d8a2908	0.06746107
218	0x3e3e6fbd	0.18597312
219	0xbd0613f4	-0.032733873
220	0x3c615878	0.013754003
221	0xbde764bb	-0.1129851
222	0xbe3ae2a7	-0.18250524
223	0x3d97dfe4	0.074157506
224	0x3e4ffe86	0.20311937
225	0x3c859fa9	0.016311483
226	0x3d3401d1	0.043947045
227	0x3e393534	0.18086702
228	0xbce5b985	-0.028042564
229	0xbd050dda	-0.032483913
230	0x3db246bb	0.08704897
231	0x3cb83b20	0.02248913
232	0xbd69f159	-0.057114933
233	0x3e2607b4	0.16213876
234	0xbd19433f	-0.037417646
235	0x3cbcae35	0.023032287
236	0x3c4a598a	0.012350449
237	0x3d3709e1	0.044687156
238	0xbd431271	-0.04762501
239	0x3e1ee53a	0.1551713
240	0x3e161187	0.14655124
241	0x3d0d766a	0.034536757
242	0x3c76d5a5	0.015065585
243	0xbdd39b51	-0.10332359
244	0xbe12ca9c	-0.14335102
245	0x3e39e739	0.1815461
246	0xbd9fd58c	-0.07804403
247	0x3c904c1b	0.017614415
248	0xbd7ef9d3	-0.06224997
249	0xbdd07af3	-0.10179701
250	0x3d995d3a	0.07488485
251	0x3bb829e5	0.0056202286
252	0x3d29a39a	0.04141579
253	0x3ce813c1	0.028329732
254	0xbc07b3ac	-0.008282583
255	0x3d574b41	0.052562002

rnn_layer.rnn_layer.bias_hh_l0 f4 [256]
0	0x3e2ba70d	0.16762944
1	0xbd923aaf	-0.07140099
2	0xbd002755	-0.03128751
3	0xbd28d7c6	-0.041221403
4	0x3ded3ffb	0.11584469
5	0xbdb254ab	-0.087075554
6	0xbc97d5ba	-0.01853453
7	0xbb09bafd	-0.0021015995
8	0x3ddd571a	0.10807629
9	0xbd9a0beb	-0.075218044
10	0xbd94f352	-0.07272972
11	0xbe241029	-0.1602179
12	0xbd6cb181	-0.05778647
13	0x3c1f87ea	0.009736994
14	0xbcd7a999	-0.026325988
15	0x3e0e8aeb	0.1392018
16	0xbc4fc73c	-0.0126817785
17	0x3d1a669a	0.037695505
18	0x3e268740	0.16262531
19	0xbd837d16	-0.064203426
20	0xbc32fdc1	-0.010924757
21	0xbc5fe314	-0.0136649795
22	0xbe3d1f75	-0.18469031
23	0x3d9de129	0.077089615
24	0x3e1a3e0c	0.15062732
25	0xbdc65241	-0.096836574
26	0x3db16970	0.08662689
27	0xbe1929c2	-0.14957336
28	0xbd9ce9f4	-0.076618105
29	0x3bd42f0b	0.0064753345
30	0x3d074229	0.03302208
31	0xbbc2f607	-0.005949739
32	0x3dda7fb5	0.106688894
33	0x3cd51136	0.026009183
34	0x3e299ce5	0.16563757
35	0x3dd94bc9	0.10610158
36	0x3dc6c722	0.0970595
37	0x3dede1c5	0.11615328
38	0x3d174692	0.036932535
39	0xbe253fcd	-0.1613762
40	0x3df56130	0.11981428
41	0x3e04a529	0.12953629
42	0xbda6389a	-0.08116265
43	0x3d9251d7	0.07144516
44	0xbbf90a10	-0.0076000765
45	0x3d0be0e0	0.034150004
46	0xbda06263	-0.07831266
47	0x3db725cb	0.08942755
48	0x3e0f25d5	0.13979276
49	0x3c990058	0.018676922
50	0x3d7e5a56	0.06209787
51	0xbe6e053c	-0.23244184
52	0xbe72f60c	-0.23726672
53	0x3e0c9bda	0.13731328
54	0xbe041fc6	-0.12902746
55	0xbdba5ba1	-0.09099508
56	0xbcdc5613	-0.026896512
57	0xbc5ee852	-0.013605194
58	0x3e10be3b	0.14135067
59	0xbbf0b108	-0.0073453225
60	0xbcd9f2c4	-0.026605017
61	0xbc7e2669	-0.015512087
62	0xbdac76f2	-0.084211245
63	0xbe201bc8	-0.15635598
64	0x3c5fc78b	0.013658415
65	0xbd9f4b91	-0.07778085
66	0xbe02dfc9	-0.1278068
67	0x3e36ca01	0.17850496
68	0x3db936f9	0.09043688
69	0xbd5bf009	-0.053695712
70	0xbe0312dd	-0.12800165
71	0x3dd9dca4	0.10637787
72	0x3dcbafc5	0.09945635
73	0xbd620d50	-0.055188477
74	0x3dbd55b2	0.09244861
75	0xbe875bad	-0.2643713
76	0x3da4d94c	0.080492586
77	0x3da7746f	0.08176505
78	0x3be26fa6	0.006910282
79	0x3e298082	0.16552928
80	0x3e2c3621	0.16817524
81	0x3d5a0e89	0.053236518
82	0xbdb18c17	-0.08669298
83	0xbde59d3a	-0.11211629
84	0xbc04059e	-0.00805798
85	0xbc3e03ac	-0.011597555
86	0x3d805cc8	0.062676966
87	0xbc9d0bd5	-0.019170681
88	0xbd29d34c	-0.041461274
89	0x3e1e96e8	0.15487254
90	0xbd8b4a5d	-0.06801293
91	0x3de25dd4	0.110530525
92	0x3cf369aa	0.02971347
93	0x3c6f6e52	0.014613705
94	0x3e112788	0.14175236
95	0x3e12af33	0.14324646
96	0xbd29caae	-0.041453056
97	0x3d92572b	0.07145532
98	0x3e4d4a75	0.20047934
99	0x3e24a81e	0.16079757
100	0x3d85e826	0.065384194
101	0x3db07d6f	0.086176746
102	0xbdafab03	-0.0857754
103	0x3e6863f5	0.2269438
104	0xbd5e90be	-0.054337256
105	0x3e1d5c56	0.15367255
106	0x3d92ec1d	0.07173941
107	0x3d393ce5	0.04522409
108	0x3d94c461	0.07264019
109	0x3d8998e3	0.06718614
110	0x3e0d7c10	0.13816857
111	0x3c23dbb2	0.01000111
112	0x3c05f524	0.008176122
113	0x3d9aae90	0.075528264
114	0xbd2a91ae	-0.041642837
115	0xbdf1ae5a	-0.11800833
116	0x3c5a64f8	0.013329737
117	0xbd9341b3	-0.071902655
118	0xbe27c173	-0.16382389
119	0xbd1c5a71	-0.03817219
120	0x3d973512	0.07383169
121	0xbe106359	-0.14100398
122	0x3d8f9108	0.070100844
123	0x3e7048a6	0.23465213
124	0xbe077d11	-0.13231303
125	0xbd0001b3	-0.03125162
126	0xbd04760c	-0.03233914
127	0x3cc0ed42	0.023550633
128	0x3bd07347	0.0063613984
129	0xbdd2e67f	-0.1029787
130	0xbc88f306	-0.016717445
131	0x3d731600	0.059347153
132	0xbde60804	-0.112319976
133	0x3dc0e365	0.09418372
134	0xbd134ff3	-0.035964917
135	0xbb999d1d	-0.004687919
136	0x3d814722	0.06312396
137	0xbd4a1494	-0.04933603
138	0xbdf40ec4	-0.11916879
139	0xbe1339b4	-0.14377481
140	0xbdb4c0f6	-0.08825867
141	0xbdf5e8f8	-0.12007326
142	0x3be24a28	0.006905813
143	0x3d1c5bb4	0.038173392
144	0xbe07af38	-0.13250434
145	0x3b3996de	0.0028318684
146	0xbe0d6648	-0.13808548
147	0xbcf9d75d	-0.030498201
148	0x3c29386d	0.010328394
149	0x3daf651a	0.085642055
150	0xbdaee03d	-0.08538864
151	0xbd6994c0	-0.057026625
152	0x3c82a413	0.015947377
153	0x3cefe143	0.029282218
154	0xbce3783e	-0.027767297
155	0x3cc24df6	0.023718815
156	0xbd924e89	-0.07143886
157	0x3c9d93f3	0.019235587
158	0x3d12ff7f	0.03588819
159	0xbc6baf35	-0.014385034
160	0xbd44b0e2	-0.04802025
161	0xbe08c3b5	-0.13355906
162	0x3e20f368	0.15717852
163	0xbd004876	-0.031319104
164	0x3ddc9caa	0.10772069
165	0x3dd40d6a	0.10354121
166	0x3c6a66aa	0.014306704
167	0xbdb773bf	-0.08957624
168	0xbca19c2d	-0.01972779
169	0x3e0bd068	0.1365372
170	0xbc272a20	-0.0102029145
171	0xbc778577	-0.015107504
172	0x3c40456c	0.011735301
173	0x3d142aad	0.03617351
174	0xbd420516	-0.04736813
175	0xbd85b764	-0.065291196
176	0x3d68b628	0.056814343
177	0x3d150894	0.036385134
178	0x3d7fd9b5	0.06246348
179	0x3ddddd8b	0.108332716
180	0x39bd8d06	0.0003615396
181	0x3d014e25	0.031568665
182	0xbdd16559	-0.10224409
183	0xbd8aa2c5	-0.06769327
184	0x3d22790f	0.03966623
185	0xbcf5be73	-0.02999804
186	0xbc9949c3	-0.01871193
187	0xbdce5202	-0.100742355
188	0x3a2fa2ef	0.0006699999
189	0x3dc5b73a	0.09654088
190	0x3dcfd651	0.101482995
191	0x3d8d6db4	0.0690569
192	0xbd662944	-0.056191698
193	0xbd7f642d	-0.062351394
194	0xbddb2727	-0.10700827
195	0xbdf38646	-0.11890845
196	0x3dae75a7	0.08518534
197	0xbcf0c84f	-0.02939239
198	0x3d6b35d7	0.057424393
199	0x3e3030f2	0.17206171
200	0x3e46093c	0.1933946
201	0xbdca8335	-0.09888307
202	0x3d0dd237	0.034624305
203	0xbe018603	-0.12648778
204	0x3df99eeb	0.12188514
205	0xbcb312ad	-0.021859491
206	0x3dd1c3ee	0.10242449
207	0x3e66ccd5	0.22539075
208	0xbd8e904f	-0.069611184
209	0x3e6335a3	0.2218843
210	0x3a716792	0.00092088536
211	0xbcf505ae	-0.029909935
212	0x3cb4c155	0.022064844
213	0xbd52f1ef	-0.051500257
214	0x3c812d4c	0.01576867
215	0xbc9b4029	-0.018951492
216	0x3e085059	0.133119
217	0x3db5d493	0.08878436
218	0x3e1a6134	0.15076143
219	0xbc0dd174	-0.008655895
220	0xbcc90aa3	-0.024541205
221	0xbe2e103f	-0.16998385
222	0xbe1c9cda	-0.15294209
223	0x3cfea5f2	0.031084988
224	0x3e7655c7	0.24056159
225	0xbc83fe1a	-0.016112376
226	0x3c5449e2	0.012957068
227	0x3d6d6b08	0.0579634
228	0x3d021dca	0.03176669
229	0x3d991b7b	0.074759446
230	0xbd4e577e	-0.050376408
231	0xbd6378ae	-0.05553501
232	0xbc5ec8eb	-0.013597707
233	0x3cba63a5	0.022752592
234	0xbda092a3	-0.07840469
235	0x3ce2aafa	0.027669419
236	0x3c366915	0.011133452
237	0x3dfea13a	0.12433095
238	0x3d216f59	0.03941283
239	0x3e292676	0.16518578
240	0x3d264330	0.04059142
241	0x3d296e42	0.041364916
242	0x3bf8987b	0.0075865365
243	0xbd8e193f	-0.06938409
244	0xbe299779	-0.16561688
245	0x3e45c369	0.19312824
246	0xbdffa6f1	-0.124830134
247	0x3d6ba557	0.057530727
248	0xbd8331c9	-0.0640598
249	0x3d87743b	0.06613966
250	0xbd9cff26	-0.07665853
251	0x3b9c8d11	0.0047775586
252	0x3e385acd	0.18003388
253	0x3e015a71	0.12632157
254	0xbd175683	-0.03694774
255	0xbca16bd6	-0.01970474

conv1.conv_1.weight f4 [64, 1, 5]
0	0x3c995180	0.01871562
1	0xbec7a2fe	-0.3899154
2	0x3e35e65a	0.17763653
3	0x3c9cfa83	0.019162422
4	0x3e0484a7	0.12941228
5	0x3eb61945	0.35566154
6	0xbe8a6b75	-0.27035108
7	0x3dd7790b	0.10521134
8	0x3e5ba789	0.21450628
9	0xbeb300b2	-0.34961468
10	0xbe8c4e79	-0.2740362
11	0x3d03e7ae	0.03220337
12	0xbe0917b6	-0.13387951
13	0x3d5f8bb1	0.05457658
14	0x3e9312ab	0.2872518
15	0x3e821b0d	0.25411263
16	0xbe36efeb	-0.17864959
17	0x3e63f7a5	0.22262438
18	0x3e194a19	0.14969672
19	0x3d0c2d08	0.034222633
20	0x3bab7d90	0.005233474
21	0x3ec36324	0.38161576
22	0x3e6296f6	0.221279
23	0xbe564240	-0.2092371
24	0xbeabf5b0	-0.33585882
25	0x3f0f23cf	0.55914015
26	0xbd0e91ab	-0.03480689
27	0xbd6267ce	-0.055274777
28	0x3e16d57c	0.14729875
29	0xbd2e8cd0	-0.042614758
30	0xbe17870e	-0.14797613
31	0xbd1f3a73	-0.0388741
32	0x3e1659ed	0.14682741
33	0xbde3e145	-0.11126951
34	0x3ee2d8c6	0.4430601
35	0xbebd5a91	-0.3698316
36	0xbec0d8f0	-0.3766551
37	0x3dfcb17d	0.12338541
38	0x3e1f6f5a	0.15569821
39	0xbb4f1d95	-0.0031603326
40	0x3ec16af4	0.3777691
41	0xbcab392e	-0.020901289
42	0x3e569a3c	0.20957273
43	0x3c0156aa	0.0078941975
44	0x3e613e5a	0.21996441
45	0x3ef246dc	0.47319686
46	0x3e0dc71f	0.1384549
47	0x3cdbdcf0	0.02683875
48	0x3e45eaa3	0.19327788
49	0xbe9c4804	-0.30523694
50	0x3e70d59a	0.23518983
51	0xbe0faf3e	-0.14031693
52	0xbe16a2b9	-0.14710511
53	0x3e7595d3	0.23982935
54	0x3e2bbf00	0.1677208
55	0x3e8d6b00	0.27620697
56	0x3e12c225	0.14331873
57	0x3d894f77	0.0670461
58	0x3e72d531	0.23714139
59	0x3ea32999	0.31867674
60	0x3d73485a	0.05939517
61	0x3e1a5c6f	0.15074323
62	0xbebfe05d	-0.37475863
63	0x3e6d538c	0.23176402
64	0x3e6a6111	0.2288859
65	0x3e89eafc	0.2693709
66	0xbea9bccd	-0.33151856
67	0xbe4ca97e	-0.19986531
68	0x3dff55e2	0.12467553
69	0x3e2557c2	0.16146758
70	0xbeaa95bc	-0.33317363
71	0x3e7635c9	0.24043955
72	0x3db29e6b	0.08721622
73	0x3dc0bcbe	0.09411
74	0x3e0013e1	0.12507583
75	0xbeb9ea16	-0.36311406
76	0x3e0e86f0	0.13918662
77	0xbcc8d84b	-0.024517199
78	0x3c824d6c	0.015906058
79	0x3e591022	0.2119756
80	0xbe2eb193	-0.17059927
81	0x3e1626f1	0.14663292
82	0x3ed12ded	0.4085535
83	0xbe90d346	-0.2828619
84	0xbddbca8d	-0.10731993
85	0x3c3c873d	0.011506853
86	0xbe42eefd	-0.1903648
87	0x3ea00e68	0.3126099
88	0xbe452cd3	-0.1925538
89	0x3dc260eb	0.09491142
90	0x3e13e234	0.14441758
91	0x3ea69873	0.32538185
92	0x3ea64ecf	0.32482
93	0xbc8aa489	-0.01692416
94	0xbd91a641	-0.071117885
95	0x3eb14415	0.34622255
96	0xbe9537d2	-0.2914415
97	0x3da8a3b3	0.08234348
98	0xbd966ccc	-0.0734497
99	0x3d8880be	0.066651806
100	0x3e6f0432	0.23341444
101	0xbd9f5653	-0.07780137
102	0xbcf5d15a	-0.030007053
103	0xbec4839a	-0.38381654
104	0xbe38be24	-0.18041283
105	0x3bc16ac1	0.0059026186
106	0x3ada3f3e	0.0016650928
107	0xbeb05cc4	-0.34445775
108	0xbe88a888	-0.2669108
109	0xbd1910d7	-0.037369575
110	0xbee35d3b	-0.44407067
111	0xbe55a21f	-0.20862626
112	0x3ea73101	0.32654575
113	0x3ded88a4	0.11598328
114	0xbe557b72	-0.20847872
115	0xbccd6b91	-0.025075706
116	0xbe482cbc	-0.19548315
117	0xbe549995	-0.20761712
118	0xbe9499aa	-0.29023486
119	0xbeb09b37	-0.3449342
120	0x3e119217	0.14215885
121	0xbeb4a08d	-0.3527874
122	0xbe05046a	-0.12989965
123	0x3e1618a8	0.14657843
124	0x3e49ac4c	0.19694632
125	0x3d932842	0.07185413
126	0x3e94d633	0.2906967
127	0x3e73cb47	0.23808013
128	0xbde1c88f	-0.11024582
129	0xbea839bd	-0.3285655
130	0x3ec47447	0.38369963
131	0xbe0707cf	-0.13186572
132	0xbe4c642f	-0.19960092
133	0x3e7795e2	0.2417827
134	0xbe9576c5	-0.29192176
135	0xbed65bfb	-0.4186705
136	0xbeca1ba8	-0.39474225
137	0x3e109f15	0.14123185
138	0x3e5b5237	0.21418081
139	0xbc607651	-0.013700084
140	0x3e3d8426	0.18507442
141	0xbe940d95	-0.28916612
142	0x3e45d018	0.19317663
143	0x3f019f3d	0.50633603
144	0x3e7b86a5	0.24563082
145	0x3e69875a	0.22805539
146	0x3e275e8c	0.1634466
147	0xbeb94b94	-0.36190474
148	0xbe5ea129	-0.21741165
149	0xbe91262a	-0.2834943
150	0xbe4303e3	-0.19044451
151	0x3c224447	0.009903974
152	0xbee2f62d	-0.44328442
153	0xbdf371e9	-0.11886961
154	0x3e137aae	0.14402267
155	0x3dd7eda9	0.10543377
156	0xbea20b75	-0.31649366
157	0xbec263e5	-0.37966838
158	0xbd058250	-0.03259498
159	0x3e6d993d	0.23202987
160	0x3e8b2815	0.27179018
161	0xbe902dd9	-0.2815998
162	0xbd523128	-0.05131641
163	0x3e506616	0.20351443
164	0xbe1b5a69	-0.15171207
165	0x3d9050a1	0.07046629
166	0x3d7482e2	0.059695132
167	0xbe1577d9	-0.145965
168	0x3e471246	0.19440565
169	0xbeca760f	-0.39543197
170	0xbdb45420	-0.08805108
171	0xbea12046	-0.31469935
172	0xbe8b39a7	-0.27192423
173	0x3ea133dc	0.31484878
174	0x3eb96956	0.36213177
175	0xbcce9f73	-0.025222516
176	0xbe8a1778	-0.2697103
177	0xbeaab5aa	-0.33341724
178	0xbc08a9a0	-0.008341223
179	0x3e795917	0.24350391
180	0x3ec6cb95	0.38827196
181	0x3d08de8c	0.033415362
182	0xbe8ab13b	-0.2708834
183	0xbe624c8b	-0.22099511
184	0xbdbbaec4	-0.09164193
185	0x3e1aba27	0.15110074
186	0x3deeaef8	0.116544664
187	0xbe1df692	-0.1542609
188	0xbe92f2aa	-0.28700763
189	0xbdbda6b6	-0.09260313
190	0xbd65b863	-0.056084048
191	0x3e698a6d	0.22806711
192	0xbec241c2	-0.37940794
193	0x3e94bd90	0.29050875
194	0xbd2a3a14	-0.041559294
195	0xbea2c835	-0.3179337
196	0x3d612623	0.05496801
197	0xbe9387ca	-0.28814536
198	0x3e803d22	0.2504664
199	0x3ea636ec	0.32463777
200	0xbe9860fc	-0.29761493
201	0x3e533c15	0.20628388
202	0x3e227754	0.15865833
203	0xbe9df390	-0.30849886
204	0x3e57de07	0.2108079
205	0xbda7297f	-0.081622116
206	0xbe9e0726	-0.3086483
207	0xbe7c0e46	-0.2461482
208	0x3e5883e1	0.21144058
209	0x3e8582c2	0.26076323
210	0x3e925806	0.28582782
211	0xbec1f7ed	-0.37884465
212	0xbe63e4ad	-0.22255202
213	0x3da5ce2e	0.08095966
214	0x3e8e1979	0.2775381
215	0x3d63dd92	0.055631228
216	0xbe632790	-0.2218306
217	0xbdd6bf59	-0.104857154
218	0xbeb2d8fe	-0.34931177
219	0xbb07e31b	-0.002073473
220	0x3e7a6afe	0.24454877
221	0x3e6e3a65	0.23264463
222	0x3da404db	0.080087386
223	0xbeaa0f64	-0.33214867
224	0xbe4c313f	-0.19940661
225	0xbe87f4dc	-0.26554
226	0xbdf53c9e	-0.119744524
227	0xbe50ef23	-0.20403723
228	0x3ec6469d	0.3872575
229	0x3e2bbd4f	0.16771434
230	0xbef6681e	-0.4812631
231	0xbf1cef4c	-0.6130264
232	0x3e96efda	0.29479867
233	0x3d0ffb08	0.03515151
234	0x3bc21650	0.00592307
235	0x3d779ea0	0.06045401
236	0x3de772cd	0.113011934
237	0xbe829c0a	-0.25509673
238	0x3c2fd07d	0.01073086
239	0x3ed311a3	0.41224393
240	0xbde4ad29	-0.1116584
241	0x3e8f5214	0.27992308
242	0xbe7c1c49	-0.24620165
243	0xbe99ec41	-0.3006306
244	0xbeeb86d7	-0.46001312
245	0x3eab51b9	0.33460787
246	0xbe152de8	-0.14568293
247	0xbd33e3d4	-0.043918446
248	0xbea24874	-0.31695902
249	0x3e447ec4	0.19188982
250	0x3e3f3d08	0.18675625
251	0x3ebcf4e7	0.36905596
252	0xbe820a98	-0.25398707
253	0x3e80d57d	0.2516288
254	0xbcb0fb4c	-0.021604203
255	0xbde55b00	-0.111989975

conv1.conv_1.bias f4 [64]
0	0xbe8dc49a	-0.27689058
1	0x3ebcd177	0.3687856
2	0xbc9e4062	-0.01931781
3	0xbe6a82bf	-0.22901438
4	0x3ed5729c	0.41689003
5	0xbe99c2c5	-0.3003141
6	0xbd910f41	-0.070829876
7	0xbe875d59	-0.26438406
8	0x3ea98df5	0.33116117
9	0x3e4629e3	0.19351916
10	0xbd960a92	-0.07326235
11	0xbe994dc3	-0.2994214
12	0xbe7a5317	-0.24445759
13	0x3e9b7d40	0.30368996
14	0x3e143aaa	0.14475504
15	0xbe35bcb7	-0.1774777
16	0x3e5cb5c0	0.21553707
17	0xbe6760fc	-0.2259559
18	0x3e8426c9	0.2581084
19	0x3e981bf8	0.29708838
20	0xbdfd0c7b	-0.12355896
21	0xbdd9a187	-0.10626512
22	0x3d904f5d	0.07046387
23	0x3d132bd6	0.035930477
24	0xbbe6b4c7	-0.0070405933
25	0x3e42081e	0.18948409
26	0x3e2dd61d	0.16976209
27	0x3e5b9c72	0.21446398
28	0x3e8b8cb4	0.27255785
29	0x3e82f558	0.25577807
30	0x3dd02159	0.101626106
31	0x3e64d192	0.2234557
32	0xbd249463	-0.040180575
33	0xbe059545	-0.13045223
34	0x3e762ba2	0.24040082
35	0xbe026c2d	-0.12736578
36	0xbe212de4	-0.15740162
37	0x3e31fbbe	0.17381188
38	0x3e84f89f	0.25970933
39	0x3e19cdca	0.15019909
40	0x3d17f11a	0.037095167
41	0x3df771cd	0.12082253
42	0xbca60b56	-0.020269077
43	0x3d965957	0.07341259
44	0x3dece69d	0.115674235
45	0xbde549a4	-0.111956865
46	0x3e8db7ab	0.2767919
47	0xbded643a	-0.11591382
48	0x3d6f2895	0.05838831
49	0xbd9409b9	-0.07228417
50	0xbe9f73be	-0.31142992
51	0x3d705a86	0.05868008
52	0x3d29bf1d	0.041442025
53	0x3defd6c7	0.117108874
54	0xbe49ae0e	-0.19695303
55	0x3d7c4598	0.061589807
56	0xbe396dc8	-0.18108284
57	0xbe0a4fc1	-0.13506986
58	0xbe3d2ce2	-0.18474153
59	0xbe38f494	-0.18062049
60	0xbe8390a3	-0.25696287
61	0xbe3e8e9c	-0.18609089
62	0xbc75f527	-0.015012062
63	0x3e8c834d	0.27443925

conv1.conv_2.weight f4 [64, 64, 5]
0	0xbee23864	-0.44183648
1	0xbd7d70de	-0.061875217
2	0x3e5fde79	0.2186221
3	0xbc611234	-0.01373725
4	0x3de96b4b	0.11397418
5	0xbd4996e8	-0.04921618
6	0xbd9280c0	-0.07153463
7	0xbe189220	-0.14899492
8	0xbe60a3a6	-0.21937427
9	0xbdd8bd4c	-0.105829805
10	0xbecceaea	-0.40022975
11	0xbe9bc8df	-0.3042669
12	0xbd0b8280	-0.03406
13	0x3db45114	0.08804527
14	0x3d67c3da	0.056583263
15	0x3d9136ef	0.07090556
16	0x3dbc1afc	0.09184834
17	0x3d107d5d	0.035275806
18	0xbb5ae648	-0.0033401418
19	0xbe11cce6	-0.14238319
20	0xbdfdbad4	-0.1238915
21	0xbe61226d	-0.21985789
22	0xbe3607b7	-0.1777638
23	0xbdd6dddf	-0.10491537
24	0xbda589b5	-0.08082906
25	0x3d663547	0.056203153
26	0x3cbca935	0.023029903
27	0x3d335b5c	0.0437883
28	0x3d49fcc6	0.04931333
29	0xbdb1739f	-0.08664631
30	0x3ceb6ad1	0.028737457
31	0x3c3805b3	0.011231828
32	0x3d3cc5e6	0.04608717
33	0xbde26788	-0.11054903
34	0xbddb88a3	-0.10719421
35	0xbe40d0ea	-0.18829694
36	0x3d23d69e	0.039999597
37	0x3e13c8bd	0.14432044
38	0x3df5a5ec	0.11994538
39	0x3dbdfd46	0.09276824
40	0x3da7be9e	0.08190654
41	0x3d6167a0	0.055030465
42	0x3d4bf651	0.049795453
43	0xbd3b98c6	-0.045799993
44	0xbde9a58a	-0.11408527
45	0x3cdcc573	0.02694962
46	0x3dc072cc	0.09396896
47	0x3dabebee	0.083946094
48	0x3d9ea2ac	0.07745871
49	0xbde634ee	-0.11240564
50	0x3dc97677	0.098370485
51	0x3dde0c74	0.10842219
52	0x3d9dd18b	0.07705983
53	0xbccaa170	-0.024735183
54	0xbe20039b	-0.15626375
55	0x3db5bdd8	0.088741004
56	0x3d21fb37	0.039546218
57	0x3d049c7c	0.032375798
58	0xb98c362a	-0.00026743236
59	0xbdb637f7	-0.08897393
60	0x3deb949f	0.115029566
61	0x3d64517a	0.055741765
62	0x3d456b2c	0.04819791
63	0xbca4be84	-0.020110376
64	0xbda845f9	-0.08216471
65	0x3d8d85b9	0.06910271
66	0xbc62a7ea	-0.013833979
67	0xbe06ed4e	-0.13176462
68	0xbdfee067	-0.12445145
69	0x3db8be09	0.09020621
70	0x3a9c3471	0.0011917484
71	0xbc4c7dce	-0.012481166
72	0xbbee823b	-0.0072787083
73	0xbdc4286a	-0.09578021
74	0xbe16d90f	-0.14731239
75	0xbee546a5	-0.4478046
76	0xbf104cfa	-0.56367457
77	0xbd5269cd	-0.05137043
78	0x3e2d4a63	0.16922908
79	0x3d53b6ee	0.051688127
80	0xbd7c9f28	-0.06167522
81	0xbe491ac2	-0.19639114
82	0xbd589a59	-0.052881572
83	0xbd06fcdf	-0.032956
84	0x3db667ac	0.089064926
85	0xbcb8ade4	-0.022543855
86	0xbda74d47	-0.08169036
87	0x3e2e2445	0.17006023
88	0xbd5b061f	-0.053472634
89	0x3d2fbafa	0.042902924
90	0x3de3e031	0.111267455
91	0x3d7b6827	0.061378624
92	0x3de391e5	0.111118115
93	0x3acca6d7	0.0015613687
94	0xbdeadaed	-0.11467538
95	0x3dc51876	0.09623806
96	0xbcfd8550	-0.030947357
97	0xbc5f2603	-0.013619903
98	0xbd1b2b2b	-0.037882965
99	0xbd3f1864	-0.04665412
100	0x3daa4427	0.0831378
101	0xbd1cb62f	-0.03825968
102	0xbd3253f4	-0.043537095
103	0xbcfe824c	-0.03106799
104	0xbd815454	-0.063149124
105	0x3db9fa21	0.090809114
106	0x3e110468	0.14161837
107	0x3df0573d	0.117353894
108	0x3db310e2	0.087434545
109	0x3cdd474f	0.027011542
110	0xbe27d0cd	-0.16388245
111	0xbc851a12	-0.016247783
112	0x3e3816db	0.17977469
113	0x3da3549f	0.079751246
114	0xbc20dfb4	-0.00981896
115	0x3d7c3782	0.061576374
116	0x3daca11f	0.08429169
117	0x3dacf17f	0.08444499
118	0x3d6005b8	0.054692954
119	0x3d1de5fa	0.0385494
120	0xbb5898b7	-0.003305001
121	0x3ca2457c	0.019808523
122	0xbd0b0414	-0.033939436
123	0xbd5a13a0	-0.053241372
124	0x3e00ba67	0.12571107
125	0xbdb95e97	-0.09051245
126	0xbdfb5576	-0.1227216
127	0xbd5718ed	-0.052514005
128	0xbc94231b	-0.018083146
129	0xbc79c806	-0.015245443
130	0xbcc53c57	-0.024076624
131	0x3af8a4da	0.0018970028
132	0xbea21352	-0.31655365
133	0xbe7475ea	-0.23873106
134	0xbdfd3538	-0.12363666
135	0xbe777a1a	-0.24167672
136	0xbcb49b86	-0.022046816
137	0x3e11475c	0.14187378
138	0x3e0729b1	0.13199498
139	0x3d6f9de8	0.0585002
140	0x3d9fc0c1	0.07800437
141	0x3e0210c5	0.1270171
142	0x3c7e8338	0.015534215
143	0xbd657323	-0.056018006
144	0xbe27e8b1	-0.16397358
145	0x3a3590ff	0.0006926208
146	0xbc25e72d	-0.010125917
147	0xbdae4ea8	-0.08511096
148	0xbd2246f6	-0.039618455
149	0xbcfbc245	-0.030732283
150	0x3d8865ad	0.06660018
151	0x3dd85c42	0.10564472
152	0x3dfe319b	0.12411805
153	0x3e464c6e	0.19365093
154	0x3d83755b	0.06418868
155	0x3b0d9c65	0.002160811
156	0x3e3a8b85	0.18217285
157	0x3dd0f5a0	0.10203099
158	0x3dfea011	0.12432874
159	0x3e0764c6	0.13222036
160	0xbd23add3	-0.039960694
161	0x3d81b70a	0.0633374
162	0xbcffcded	-0.031226123
163	0xbe3c9aeb	-0.18418472
164	0xbd8a41f7	-0.06750863
165	0xbe007eb4	-0.12548333
166	0xbc9ae0f1	-0.018906089
167	0xbe026430	-0.12733531
168	0xbe0a1991	-0.13486315
169	0xbdf57dfa	-0.11986919
170	0xbf08a8dc	-0.5338266
171	0xbd8e1f86	-0.06939606
172	0xbcd24648	-0.025668278
173	0x3cdcfec5	0.026976952
174	0x3de83c6b	0.11339649
175	0xbd3928df	-0.045204993
176	0x3e1b22f1	0.15150048
177	0x3dd952f4	0.10611525
178	0x3e2d6495	0.169329
179	0x3e1e8d52	0.15483597
180	0x3d085a9d	0.03328954
181	0xbdfe6169	-0.12420923
182	0xbe451d12	-0.1924937
183	0xbe0442b1	-0.12916066
184	0xbdaf9e78	-0.085751474
185	0xbc838009	-0.016052263
186	0xbe0c60e7	-0.1370884
187	0xbe428f38	-0.18999946
188	0xbd7774b5	-0.060414035
189	0xbde1fa33	-0.1103405
190	0xbdca7e42	-0.09887363
191	0x3ded8531	0.1159767
192	0xbe7b575c	-0.24545044
193	0x3e2958d7	0.16537796
194	0xbd580c2e	-0.05274599
195	0xbf01227e	-0.50443256
196	0xbe96a767	-0.29424593
197	0xbdf08849	-0.11744744
198	0x3db04d15	0.08608452
199	0x3b2c2bb5	0.0026271169
200	0xbe8041cc	-0.250502
201	0xbf1a1262	-0.601843
202	0x3c23fee6	0.010009503
203	0x3e5749e6	0.21024284
204	0x3db8ff4b	0.09033068
205	0xbe6de654	-0.23232394
206	0x3cb527e7	0.022113753
207	0x3db3914f	0.0876795
208	0x3da8eb16	0.08247964
209	0x3dddca00	0.10829544
210	0x3d9e7d1f	0.07738709
211	0xbc11d37a	-0.008900518
212	0xbdce1f9a	-0.10064621
213	0xbdf60e61	-0.12014461
214	0x3cf40eca	0.029792208
215	0x3db99d6b	0.09063228
216	0x3db22b31	0.08699644
217	0x3e22fab8	0.15915954
218	0x3d8b74a8	0.0680936
219	0x3c95e521	0.018297734
220	0xbc84826b	-0.01617547
221	0xbe607632	-0.21920088
222	0xbe5071e0	-0.2035594
223	0xbdbfc942	-0.09364559
224	0xbdd4a3da	-0.10382815
225	0xbf09b513	-0.5379192
226	0xbe87667a	-0.2644537
227	0xbd7b4313	-0.061343264
228	0x3cfd8ed5	0.030951897
229	0x3d779e9e	0.060454004
230	0xbda894b4	-0.08231488
231	0x3ca907b0	0.020633548
232	0x3e6e7692	0.23287418
233	0x3e19eddc	0.15032142
234	0x3dd47fbd	0.10375927
235	0x3e0fe07b	0.14050476
236	0x3d14993c	0.03627895
237	0x3d9df172	0.07712068
238	0xbd57d2fe	-0.052691452
239	0xbddfb2fb	-0.1092281
240	0x3d89b014	0.06723037
241	0x3d46f3cc	0.048572347
242	0x3d0a715d	0.033799518
243	0x3cf784a8	0.030214623
244	0x3c1df7a0	0.009641558
245	0x3e0c2dde	0.13689372
246	0xbe181874	-0.14853078
247	0xbe4138dc	-0.18869346
248	0xbe2f8d4c	-0.17143744
249	0xbd96aa6b	-0.073567234
250	0x3db14288	0.08655268
251	0x3e00520c	0.12531298
252	0x3d7f6564	0.062352553
253	0x3d7fda4f	0.062464055
254	0xbe1c4e2f	-0.152642
255	0x3d5eb6f9	0.054373715

conv1.conv_2.bias f4 [64]
0	0x3c374206	0.011185175
1	0x3cf0a330	0.029374689
2	0x3b895178	0.00419062
3	0x3c5476db	0.0129677905
4	0xbd06027b	-0.03271721
5	0xbcd1ee57	-0.025626345
6	0x3c49da6a	0.01232014
7	0xbb9f3754	-0.0048588905
8	0xbc443800	-0.011976242
9	0x3d05b5b3	0.032643985
10	0xbce95585	-0.028483162
11	0xbd26fcc6	-0.040768407
12	0xbbfc429c	-0.00769837
13	0x3cfb61cf	0.030686287
14	0x3c9a077e	0.0188024
15	0x3c39ed7f	0.011348127
16	0x3d1b3d0a	0.03790001
17	0x3c17568e	0.009236945
18	0x3cfb2c16	0.03066067
19	0xbd202462	-0.039097197
20	0xbcfa038c	-0.03051927
21	0xba860183	-0.0010223839
22	0xbc073579	-0.008252495
23	0x3b8f0c0b	0.0043654493
24	0x3ba8e001	0.0051536565
25	0x3c1a86f4	0.009431589
26	0xba69773d	-0.00089060125
27	0x3bc04343	0.005867393
28	0xbcf470d0	-0.02983895
29	0xbd1884ad	-0.037235904
30	0xbcbfbff8	-0.023406968
31	0xbd067c65	-0.032833476
32	0x3cd9c70c	0.02658417
33	0x3d18134e	0.037127785
34	0xbc95aa7b	-0.018269768
35	0x3c287826	0.010282552
36	0xbd0eaea3	-0.034834515
37	0xbc0ef8a8	-0.008726276
38	0x3ce6f399	0.028192328
39	0x3bd1b725	0.0064000064
40	0xbc5d85d1	-0.013520674
41	0xbcb2012e	-0.021729078
42	0xbcc4ddb2	-0.024031494
43	0x3afde840	0.0019371584
44	0x3d11f7e6	0.035636805
45	0x3caf9e9d	0.021437937
46	0xbd0711e6	-0.032976054
47	0x3c85476e	0.016269412
48	0x3d116aac	0.03550212
49	0xbbefb2a4	-0.007314997
50	0xbb4f0355	-0.003158768
51	0xbcbe36d8	-0.02321951
52	0xbbfc77ea	-0.0077047246
53	0x3d111f99	0.035430524
54	0x3d0ac816	0.033882223
55	0x3ca11b0b	0.019666215
56	0x3c97d8fe	0.018536087
57	0xbd2486bd	-0.04016756
58	0xbb993453	-0.004675427
59	0x3bd5f8c8	0.006529901
60	0x3cd951d6	0.02652828
61	0xbc68c22f	-0.014206453
62	0xbcb95be9	-0.022626834
63	0xbc9ee785	-0.019397506
